code/part1/model_lstm.pth.tar (torch, 621846 bytes, 18 tensors)

embedding.weight f4 [11, 128]
1.2367418 1.4383498 -1.1244276 -1.3676336 -1.3673104 -2.7783523 0.9028079 0.5102427
1.7047932 -1.6107956 -0.07371549 -1.2807136 0.79253155 0.63142335 -1.0870104 1.1352819
-0.7020364 1.6541102 -0.4478572 -0.63860285 0.12581663 -1.294579 3.2204735 0.5400449
-1.724836 -0.40900365 -0.91138804 -0.74548364 1.8382047 0.35557815 -0.41702095 0.7656958
1.5300831 -0.099978 -0.488393 1.5139778 1.2535406 -0.4698693 0.58424544 -0.44860673
-0.81926656 -1.4306976 -1.3743093 0.7564273 -0.23361827 -1.131303 -0.38437185 -1.809904
-0.6748867 -0.8770145 2.1624024 0.885392 0.9569009 -0.08344334 0.7646816 -0.39692214
-0.11747108 -0.67580014 -0.3943184 -0.9593345 -0.22927138 -0.73091245 2.1936615 0.817387
-0.95018435 0.8734866 0.19076179 1.1900498 0.07297094 -2.1120088 1.6839591 -1.1013534
0.9555815 2.4199626 0.68666387 -1.9922681 0.3424199 -1.22754 -0.26875514 -1.9675304
0.66682214 1.9823833 -1.8838167 -0.33751702 0.17046218 -1.4209788 1.0669683 1.1379741
1.3755438 -1.178237 0.05444093 -2.3380733 1.527131 1.3473592 -1.5116011 -1.254694
-1.1881367 1.9887592 0.1373022 -2.2893476 0.12499005 0.103696294 0.35055065 -0.41561913
1.850514 -1.8237137 -0.31049985 0.5476842 1.8887608 0.44019607 -0.8882191 2.9711452
1.7957125 1.3868599 -0.54654664 1.104218 -0.47114062 1.4821506 -1.1758554 -0.5803697
-1.0548027 0.93330896 -1.1612757 -0.6013859 -0.3572854 -0.47614095 0.79027593 0.6896715
-0.14082891 -2.291198 0.98237157 2.7079911 -1.0839397 1.4703132 1.3327458 -1.6098675
-0.814811 -0.4435934 0.40797168 -0.040776864 0.49121246 -0.56021035 0.29840764 -0.13466178
0.077054635 -0.6146543 -0.7532721 0.1862102 -0.78616494 0.5666895 -1.0961584 0.09123469
0.28307867 -0.459736 1.0931731 -0.04019342 0.9223254 -1.4094162 -1.4415153 -0.48328778
-0.21271019 0.57319784 0.037605993 0.48839772 -0.7232889 -1.2088984 0.07437578 -0.3162389
0.5344574 0.26469567 -0.34467113 0.3020612 1.0435287 -0.452534 -0.22832032 0.99550915
0.96993077 -0.32099295 -0.33841285 -0.27411178 -1.083228 0.49075624 2.3050773 0.46082622
-1.0292753 0.3583202 -0.57289386 1.031641 0.4487762 -0.062487345 0.2113523 -0.27652454
1.8674036 0.9027653 -0.13321793 -0.5175534 -2.3672655 -1.6251963 0.28691873 0.17349744
-0.34402218 -0.67393386 0.3433979 -0.04853404 0.29485577 1.5818137 0.936599 0.49330142
0.4962423 0.41064385 -0.8738292 0.3925324 0.16061635 -0.07121569 1.2973157 -0.4572917
-0.87346303 2.4348087 0.36109367 -1.6930783 -0.68812406 0.4738817 1.2834173 -0.6520727
0.14664921 -0.67115617 0.41244194 1.1211196 -0.075146705 -1.438337 0.46605328 2.546731
-0.12564471 -0.2031404 0.69043833 0.12713052 -0.7619725 -0.84037066 0.99131763 -0.46930176
0.4724203 -1.3479534 -1.6739242 0.8233425 1.7761 -0.2391753 0.14679468 0.83343095
0.7282854 0.36513713 3.9685786 -0.31324333 -0.39217892 1.5406775 0.070284665 -0.78465396
00000000: 8e4d 9e3f d91b b83f 3eed 8fbf 9e0e afbf
00000010: 0704 afbf 86d0 31c0 6b1e 673f 449f 023f
00000020: aa36 da3f 8d2e cebf 26f8 96bd 6cee a3bf
00000030: 59e3 4a3f f6a4 213f 2823 8bbf eb50 913f
00000040: a8b8 33bf e2b9 d33f 8a4d e5be 7a7b 23bf
00000050: 13d6 003e c4b4 a5bf 3d1c 4e40 6240 0a3f
00000060: 6dc7 dcbf ed68 d1be ba50 69bf 04d8 3ebf
00000070: 4b4a eb3f 570e b63e c583 d5be a404 443f
00000080: c3d9 c33f 44c1 ccbd a60e fabe 06ca c13f
00000090: 0574 a03f b592 f0be 1c91 153f c8af e5be
000000a0: 74bb 51bf 1921 b7bf 5ee9 afbf 38a5 413f
000000b0: a139 6fbe 89ce 90bf 63cc c4be efaa e7bf
000000c0: 60c5 2cbf 0684 60bf cd64 0a40 0da9 623f
000000d0: 75f7 743f 58e4 aabd 2cc2 433f 6139 cbbe
000000e0: ad94 f0bd 3d01 2dbf 1ae4 c9be f296 75bf
000000f0: 1ec6 6abe 141d 3bbf f364 0c40 4640 513f
00000100: 483f 73bf d19c 5f3f 0f57 433e 8d53 983f
00000110: ca71 953d 272b 07c0 f98b d73f 26f9 8cbf
00000120: fda0 743f abe0 1a40 34c9 2f3f a402 ffbf
00000130: a951 af3e 0820 9dbf 469a 89be 09d8 fbbf
00000140: dbb4 2a3f bcbe fd3f e820 f1bf 08cf acbe
00000150: a38d 2e3e a2e2 b5bf 6b92 883f 23a9 913f
00000160: d211 b03f 78d0 96bf 74fd 5e3d fea2 15c0
00000170: 0779 c33f 4476 ac3f 257c c1bf d099 a0bf
00000180: dd14 98bf a98f fe3f f398 0c3e ac84 12c0
00000190: c9fa ff3d b95e d43d 607b b33e 08cc d4be
000001a0: a5dd ec3f 736f e9bf d6f9 9ebe 0835 0c3f
000001b0: eac2 f13f 6161 e13e 5462 63bf 3e27 3e40
000001c0: e8d9 e53f a084 b13f 7bea 0bbf 0457 8d3f
000001d0: 5839 f1be 1cb7 bd3f 6e82 96bf 1c93 14bf
000001e0: c603 87bf 56ed 6e3f afa4 94bf 6df4 19bf
000001f0: 1dee b6be bfc8 f3be 864f 4a3f 508e 303f
00000200: 7435 10be fda2 12c0 b47c 7b3f ba4f 2d40
00000210: 89be 8abf 3933 bc3f 6a97 aa3f 2310 cebf
00000220: 7497 50bf ad1e e3be aae1 d03e a405 27bd
00000230: 3380 fb3e f269 0fbf e3c8 983e c7e4 09be
00000240: d2ce 9d3d fc59 1dbf 71d6 40bf e3ad 3e3e
00000250: 1b42 49bf 9012 113f eb4e 8cbf 41d9 ba3d
00000260: b0ef 903e 8462 ebbe 19ed 8b3f dba1 24bd
00000270: 841d 6c3f c067 b4bf 9383 b8bf 7f71 f7be
00000280: b3d0 59be 18bd 123f be08 1a3d 440f fa3e
00000290: 7629 39bf 2fbd 9abf 5452 983d 11ea a1be
000002a0: 33d2 083f 3186 873e bc78 b0be c4a7 9a3e
000002b0: 5992 853f 89b2 e7be cdcc 69be b0d9 7e3f
000002c0: 624d 783f 3059 a4be 7344 adbe 6158 8cbe
000002d0: 37a7 8abf 6744 fb3e 6386 1340 6af1 eb3e
000002e0: 4bbf 83bf bf75 b73e 2ca9 12bf d00c 843f
000002f0: fec5 e53e bbf2 7fbd bd6c 583e a094 8dbe
00000300: 1507 ef3f a01b 673f 486a 08be 617e 04bf
00000310: 4781 17c0 6f06 d0bf 03e7 923e 50a9 313e
00000320: ad23 b0be ee86 2cbf d9d1 af3e a1cb 46bd
00000330: 56f7 963e df78 ca3f f4c4 6f3f 0192 fc3e
00000340: 7913 fe3e e93f d23e 45b3 5fbf 02fa c83e
00000350: 9d78 243e 88d9 91bd 710e a63f 2322 eabe
00000360: 469b 5fbf e8d3 1b40 45e1 b83e cab6 d8bf
00000370: e628 30bf 9fa0 f23e 0547 a43f 3dee 26bf
00000380: 362b 163e e4d0 2bbf 972b d33e d980 8f3f
00000390: 84e6 99bd 6d1b b8bf 899e ee3e a4fd 2240
000003a0: 02a9 00be 0904 50be 91c0 303f 812e 023e
000003b0: a110 43bf 8822 57bf fec6 7d3f 5248 f0be
000003c0: 13e1 f13e bd89 acbf 2643 d6bf 93c6 523f
000003d0: 3f57 e33f 5fea 74be 5851 163e bb5b 553f
000003e0: e970 3a3f 41f3 ba3e 31fd 7d40 6e61 a0be
000003f0: adcb c8be ec34 c53f 68f1 8f3d 15df 48bf

lstm.weight_ih_l0 f4 [256, 128]
-0.1556885 0.0065929745 0.06389589 0.11780901 -0.08079187 -0.053938374 0.07436141 -0.12496193
0.021915175 -0.072424844 0.0071253898 0.009731869 -0.058323 0.05844368 -0.033661503 -0.17837526
0.1295575 -0.09492566 0.021731524 0.052440606 0.13041939 0.1212733 -0.09206268 -0.018960487
0.076716155 0.16877103 0.085930176 0.124796286 -0.17934549 -0.05693177 -0.024134215 -0.11225914
0.092041 0.00059817865 -0.005562584 -0.081136666 -0.11728429 0.08468541 -0.08268232 0.09731782
-0.12464134 -0.07592975 0.12201525 0.0044701905 0.015542106 0.047554016 0.022213882 0.10130951
-0.06059124 -0.08235433 -0.038483653 -0.026712364 0.057462547 0.018139131 -0.041062377 0.040565595
0.10531633 0.016031466 0.16539016 0.03902742 0.16965762 0.07668894 -0.08019405 0.09839075
0.088878036 -0.009659255 -0.06664693 -0.034457948 -0.021237819 0.006093492 0.016054455 0.056968395
0.028199915 0.09615436 -0.13080543 -0.058439903 -0.13218556 -0.06928963 0.06998473 -0.10380768
-0.13886939 -0.05092925 0.043859556 0.15727724 -0.06411623 -0.033300947 -0.11725781 -0.13008048
-0.036162958 0.103407726 0.008087827 0.12957792 -0.14994472 -0.07062755 -0.058516543 0.12377277
-0.025662793 0.044939965 -0.178135 0.0131952595 -0.012399265 -0.14680979 0.08059439 0.03571799
-0.063421026 -0.0009797687 -0.02944107 -0.035881776 -0.10871658 -0.011287525 0.08189104 0.010867326
-0.017767085 0.03959727 -0.016946722 0.018909682 0.03373867 -0.13662803 0.1281077 0.10483641
0.08744815 0.06711453 -0.022190822 0.025719494 0.029252961 -0.055854153 -0.08352736 0.07886289
-0.22811344 0.03166832 -0.13920826 -0.043634158 0.044156864 -0.03142643 0.092278734 0.06370565
-0.078607604 0.031884648 -0.0628664 -0.25026292 0.031301502 -0.10220321 -0.22046024 -0.018342538
-0.030437423 0.19397512 0.17457432 -0.04332588 -0.16534983 0.018177979 0.12443222 -0.004845104
-0.04962839 -0.18352325 -0.071166016 0.029975675 0.18869658 0.123849735 -0.20348951 0.2055854
-0.109895 0.0048047737 0.12886284 -0.109968714 0.08951247 -0.09969163 -0.12799466 0.13733718
-0.26704967 -0.15090472 -0.034622174 -0.047087215 0.022902243 0.04844026 0.21894573 -0.22216773
0.02061311 0.02426183 -0.08879702 0.2327124 0.19188735 0.060000736 0.0972421 0.14513168
-0.11372466 0.028454946 -0.23344493 0.007026036 0.046325486 -0.058175974 0.0036585578 -0.002873617
-0.15512058 0.023705712 -0.107289396 0.34686646 0.20993893 0.10517739 -0.050333668 -0.19812799
0.14178716 0.11683065 -0.02440211 -0.1765272 -0.14435327 -0.013775865 -0.067224026 -0.04333697
-0.13059935 0.025281208 -0.15486953 0.07549835 0.07683632 -0.09756468 -0.10342794 -0.08695965
0.04243524 -0.26043436 0.11758976 0.08613686 0.13130854 -0.036914922 0.033522528 -0.036869552
0.12736809 0.12454208 -0.16461365 0.057884365 0.06297475 0.04223668 0.041566238 -0.035203807
0.1296926 -0.054655008 0.057467405 0.040798604 0.04082124 -0.24091986 -0.046975203 -0.11848125
0.004197978 0.17757861 -0.20078737 0.15736021 0.059727516 0.06467636 0.0039212694 -0.11304914
-0.004213991 -0.006088704 -0.11556696 -0.1644322 0.010585776 0.033611376 0.2212971 0.31147107
00000000: ce6c 1fbe e109 d83b d9db 823d da45 f13d
00000010: 3576 a5bd 7cee 5cbd cc4a 983d 0aec ffbd
00000020: 7487 b33c 7a53 94bd 1a7c e93b 6b72 1f3c
00000030: 19e4 6ebd a462 6f3d a5e0 09bd 01a8 36be
00000040: b9aa 043e 6268 c2bd 4f06 b23c f6cb 563d
00000050: a98c 053e 235e f83d 5c8b bcbd 0653 9bbc
00000060: 5c1d 9d3d 50d2 2c3e 29fc af3d 3295 ff3d
00000070: 58a6 37be 4a31 69bd 1eb5 c5bc 1fe8 e5bd
00000080: fe7f bc3d 17cf 1c3a 5646 b6bb fb2a a6bd
00000090: bf32 f0bd 8b6f ad3d 5955 a9bd 914e c73d
000000a0: f543 ffbd 0f81 9bbd 22e3 f93d ad7a 923b
000000b0: 51a4 7e3c 00c8 423d e3f9 b53c 5c7b cf3d
000000c0: 852e 78bd 63a9 a8bd 09a1 1dbd e3d3 dabc
000000d0: d95d 6b3d 8498 943c 0631 28bd 1c28 263d
000000e0: 17b0 d73d 6c54 833c 0a5c 293e 37db 1f3d
000000f0: baba 2d3e 170f 9d3d c73c a4bd 1781 c93d
00000100: b005 b63d da41 1ebc 307e 88bd c723 0dbd
00000110: effa adbc eaab c73b a284 833c b157 693d
00000120: 8203 e73c 94ec c43d dcf1 05be ae5e 6fbd
00000130: a75b 07be b9e7 8dbd 2754 8f3d 1f99 d4bd
00000140: c733 0ebe 309b 50bd 14a6 333d 490d 213e
00000150: 5f4f 83bd 9366 08bd dd24 f0bd d133 05be
00000160: 9c1f 14bd 6ec7 d33d ce82 043c 13b0 043e
00000170: 1c8b 19be 2da5 90bd 0baf 6fbd 947c fd3d
00000180: c73a d2bc f812 383d 0569 36be ee30 583c
00000190: 4926 4bbc 4e55 16be ac0e a53d 074d 123d
000001a0: e2e2 81bd 956b 80ba 662e f1bc c5f8 12bd
000001b0: cca6 debd 50ef 38bc 7db6 a73d de0c 323c
000001c0: 478c 91bc bf30 223d dad3 8abc 7ae8 9a3c
000001d0: 8f31 0a3d 38e8 0bbe aa2e 033e 79b4 d63d
000001e0: 0418 b33d 5873 893d 87c9 b5bc b0b1 d23c
000001f0: e8a3 ef3c 53c7 64bd 6410 abbd de82 a13d
00000200: 9296 69be a4b6 013d 9c8c 0ebe bbb9 32bd
00000210: d4dd 343d 00b9 00bd a2fc bc3d 1c78 823d
00000220: 06fd a0bd 7a99 023d 19c0 80bd 7622 80be
00000230: 0136 003d eb4f d1bd 54c0 61be 1743 96bc
00000240: e757 f9bc 6aa1 463e 9cc3 323e 7a76 31bd
00000250: 7751 29be fce9 943c 52d6 fe3d aec3 9ebb
00000260: 2447 4bbd 85ed 3bbe 7dbf 91bd 8c8f f53c
00000270: ad39 413e eea4 fd3d 8e5f 50be fb84 523e
00000280: a110 e1bd 5d71 9d3b 9ff4 033e 4737 e1bd
00000290: 5052 b73d 202b ccbd 0811 03be 1ea2 0c3e
000002a0: bcba 88be c486 1abe fbcf 0dbd 86de 40bd
000002b0: 7c9d bb3c 4b69 463d 4f33 603e f07f 63be
000002c0: d3dc a83c bfc0 c63c 36db b5bd 294c 6e3e
000002d0: 1e7e 443e 55c3 753d de26 c73d 669d 143e
000002e0: 79e8 e8bd 591a e93c 300c 6fbe a93a e63b
000002f0: cbbf 3d3d ee49 6ebd 6ac4 6f3b 4b53 3cbb
00000300: eed7 1ebe 7b32 c23c 8bba dbbd 7b98 b13e
00000310: 3bfa 563e 3e67 d73d ad2a 4ebd 10e2 4abe
00000320: a730 113e e844 ef3d efe6 c7bc 8cc3 34be
00000330: 58d1 13be 2ab4 61bc c0ac 89bd 1b82 31bd
00000340: d6bb 05be 891a cf3c 1e96 1ebe e19e 9a3d
00000350: 5c5c 9d3d fecf c7bd 07d2 d3bd e717 b2bd
00000360: 93d0 2d3d a757 85be e6d2 f03d 8668 b03d
00000370: bf75 063e 1a34 17bd eb4e 093d 8704 17bd
00000380: c86c 023e eb0f ff3d 7b90 28be 2818 6d3d
00000390: e8f8 803d 5e00 2d3d 5c41 2a3d de31 10bd
000003a0: 23ce 043e eedd 5fbd f162 6b3d 701c 273d
000003b0: 2c34 273d b2b3 76be 1269 40bd 4ca6 f2bd
000003c0: 318f 893b 2bd7 353e 349b 4dbe 0923 213e
000003d0: d7a4 743d 0a75 843d fe7d 803b 4f86 e7bd
000003e0: 8515 8abb c083 c7bb 5fae ecbd ea60 28be
000003f0: f66f 2d3c 15ac 093d b59b 623e 2379 9f3e

lstm.weight_hh_l0 f4 [256, 64]
-0.16983107 -0.28402603 0.00524034 0.20333442 0.20903113 0.22275971 0.12521186 -0.25711164
-0.15824865 -0.23580354 -0.1869718 -0.26497492 -0.1857202 0.16533026 0.016307104 0.17070268
-0.28285536 0.18298115 0.15847479 0.08874858 0.1962328 -0.21931845 0.0676093 -0.06762275
-0.065269694 0.292437 -0.061327502 0.15337425 -0.07552479 0.21955045 -0.16976371 0.13252534
0.10404571 0.053081065 -0.1991606 -0.04360468 0.23679994 -0.098898545 0.16177773 0.049219873
-0.18165651 0.17332406 -0.17539941 -0.10715404 -0.20096855 -0.23869985 0.28613284 -0.091252975
-0.11479624 -0.040373765 0.3003375 -0.2148447 0.11970988 0.02901454 -0.2758485 0.2342336
0.048255593 -0.09259449 -0.07438231 -0.14392331 -0.27868736 0.2561286 0.053641334 0.14259645
-0.04995049 -0.02194752 -0.17126767 0.18009064 0.16911337 -0.028825969 0.12806669 -0.27567753
0.0805994 0.23435315 0.5688142 0.01129214 -0.044401158 0.21276493 0.57592386 0.18055537
-0.17566286 0.10210781 0.13581525 0.14315684 0.12529281 -0.018417433 0.07771944 -0.005219096
-0.19101602 -0.15513997 0.32355028 0.098418795 -0.35401258 0.08746663 -0.09124607 -0.07891499
0.1200948 0.15527831 -0.2446759 -0.16668677 0.028514802 -0.01698917 0.09658921 0.11669799
-0.34428862 0.18116899 -0.06797499 0.007219882 -0.08838774 -0.09305847 0.16348621 -0.17767219
-0.045890503 -0.3770515 -0.05201279 -0.18847115 0.034115054 -0.36248627 -0.05173171 0.22371161
-0.6540173 -0.16199084 -0.37852386 -0.0071545024 -0.2727595 0.059569765 0.1946527 -0.15339446
0.50291526 -0.05082234 -0.22066517 0.38593358 0.46672803 0.30767938 0.2816771 -0.17913893
-0.30437672 -0.36892286 -0.19888157 -0.17539811 -0.34637362 0.32552665 0.17988382 0.2611255
-0.38972884 0.30424997 0.32856718 0.2794157 0.23608823 -0.45136857 0.45437622 -0.35392168
-0.40269867 0.49609038 -0.17948227 0.2834506 -0.22435519 0.40528047 -0.36739478 -0.20458616
0.37773812 0.25000855 -0.32678246 -0.15657769 0.40406138 -0.077922106 0.34007925 0.37462294
-0.2321881 0.44417903 -0.40064767 -0.28314313 -0.42860067 -0.22010301 0.24134678 -0.1273332
-0.1631945 0.22122686 0.43001115 -0.36499444 0.3680242 -0.047781378 -0.2723863 0.33102992
0.24450526 -0.2341479 -0.19558802 -0.47021553 -0.39666328 0.3905518 0.34957355 0.34764713
0.050474506 0.016180618 -0.17282596 0.097476795 0.008388678 0.20210272 0.23642626 -0.037435174
-0.24139614 0.068131894 0.05808029 -0.16208167 -0.16267513 0.14493832 0.11445588 0.118529774
-0.048981097 0.15616171 0.07394308 0.057441164 0.014858985 -0.2062107 -0.030117769 -0.15661417
-0.105468266 0.019715969 0.05773435 -0.001902497 -0.17404257 0.22834454 -0.017942676 -0.054017853
0.24141921 0.17205507 -0.22603792 -0.06302367 0.03400017 0.024714569 0.0072734687 0.13055433
-0.06959232 0.09072452 -0.102046564 -0.32433945 -0.17816047 -0.28045085 0.1501129 -0.20167167
-0.106407054 0.02193199 0.050458893 -0.23159875 0.29644603 -0.024552165 -0.13711986 0.08404017
0.107236505 -0.025073446 -0.15249847 -0.1994887 -0.12383525 -0.021969026 0.19577086 0.2019588
00000000: 32e8 2dbe dc6b 91be 28b7 ab3b e636 503e
00000010: 420c 563e 1f1b 643e 8a37 003e 23a4 83be
00000020: ef0b 22be 7c76 71be 8975 3fbe cbaa 87be
00000030: 702d 3ebe 564c 293e 7a96 853c afcc 2e3e
00000040: 6bd2 90be 695f 3b3e 3747 223e d1c1 b53d
00000050: 40f1 483e 0495 60be bf76 8a3d cc7d 8abd
00000060: 1eac 85bd 4dba 953e 8c32 7bbd 240e 1d3e
00000070: beac 9abd d5d1 603e 8ad6 2dbe b9b4 073e
00000080: eb15 d53d 886b 593d c2f0 4bbe d29a 32bd
00000090: af7b 723e 528b cabd 10a9 253e c79a 493d
000000a0: 2a04 3abe dd7b 313e e79b 33be 9473 dbbd
000000b0: b3ca 4dbe bc6d 74be 0180 923e d7e2 babd
000000c0: 4b1a ebbd f65e 25bd d6c5 993e 4000 5cbe
000000d0: 742a f53d e7af ed3c 043c 8dbe efda 6f3e
000000e0: a8a7 453d 2ea2 bdbd c155 98bd a260 13be
000000f0: 1cb0 8ebe 4a23 833e 04b7 5b3d ce04 123e
00000100: e398 4cbd 49cb b3bc cb60 2fbe ae69 383e
00000110: 0e2c 2d3e 7024 ecbc ea23 033e 9b25 8dbe
00000120: 4c11 a53d 46fa 6f3e cf9d 113f ab02 393c
00000130: fddd 35bd 0ddf 593e bf6f 133f 82e3 383e
00000140: f7e0 33be e61d d13d 2713 0b3e b597 123e
00000150: c24c 003e 28e0 96bc 5f2b 9f3d f304 abbb
00000160: b499 43be 03dd 1ebe 62a8 a53e cb8f c93d
00000170: 2341 b5be b421 b33d 38df babd 2f9e a1bd
00000180: 43f4 f53d 4701 1f3e 528c 7abe f0af 2abe
00000190: e097 e93c df2c 8bbc 90d0 c53d 5bff ee3d
000001a0: 9946 b0be 5d84 393e 7936 8bbd c394 ec3b
000001b0: a204 b5bd 7095 bebd ee68 273e b3ef 35be
000001c0: aef7 3bbd e50c c1be 5d0b 55bd 95fe 40be
000001d0: 3abc 0b3d cd97 b9be a1e4 53bd a814 653e
000001e0: ae6d 27bf ede0 25be e1cd c1be 5170 eabb
000001f0: 22a7 8bbe 6dff 733d 0a53 473e 7013 1dbe
00000200: 0ebf 003f 162b 50bd 0df6 61be 1699 c53e
00000210: faf6 ee3e 2788 9d3e fb37 903e 3270 37be
00000220: 44d7 9bbe 75e3 bcbe 9ca7 4bbe 909b 33be
00000230: e257 b1be 6eab a63e 7733 383e 3eb2 853e
00000240: 8a8a c7be a7c6 9b3e f539 a83e 930f 8f3e
00000250: 1dc1 713e c819 e7be 00a4 e83e 3935 b5be
00000260: 852e cebe 8fff fd3e 33ca 37be 7020 913e
00000270: 5ebd 65be ec80 cf3e 2b1b bcbe 097f 51be
00000280: e466 c13e 1f01 803e 0850 a7be e755 20be
00000290: 22e1 ce3e a095 9fbd de1e ae3e 94ce bf3e
000002a0: b8c2 6dbe 6f6b e33e b121 cdbe 23f8 90be
000002b0: 8c71 dbbe af62 61be 9c23 773e a263 02be
000002c0: 761c 27be 4b89 623e 6c2a dc3e 8de0 babe
000002d0: ab6d bc3e 68b6 43bd 3876 8bbe c17c a93e
000002e0: 965f 7a3e 78c4 6fbe 3a48 48be 17c0 f0be
000002f0: 7317 cbbe 68f6 c73e 4efb b23e cefe b13e
00000300: 5bbe 4e3d 378d 843c 4af9 30be eaa1 c73d
00000310: aa70 093c 04f4 4e3e ba19 723e a055 19bd
00000320: 8d30 77be bc88 8b3d 99e5 6d3d bdf8 25be
00000330: 4f94 26be b66a 143e d867 ea3d bdbf f23d
00000340: 67a0 48bd dbe8 1f3e 786f 973d 6d47 6b3d
00000350: 1a73 733c e628 53be 8ab9 f6bc 775f 20be
00000360: bfff d7bd 6283 a13c db7a 6c3d 355d f9ba
00000370: 3738 32be 27d3 693e 85fc 92bc d341 5dbd
00000380: 9936 773e 342f 303e 7c76 67be 8e12 81bd
00000390: c343 0b3d 3576 ca3c 4756 ee3b 09b0 053e
000003a0: 6b86 8ebd c7cd b93d cafd d0bd d20f a6be
000003b0: b36f 36be 4197 8fbe 32b7 193e 0583 4ebe
000003c0: f1eb d9bd b7aa b33c fcad 4e3d 3928 6dbe
000003d0: c6c7 973e 9f21 c9bc 2669 0cbe 411d ac3d
000003e0: d09e db3d d466 cdbc 8f28 1cbe c446 4cbe
000003f0: 569d fdbd 63f8 b3bc 2878 483e 4ace 4e3e

lstm.bias_ih_l0 f4 [256]
-0.030132707 0.11777373 -0.12520424 -0.017688716 0.046791527 -0.020489626 0.121758856 0.09553585
0.2243794 0.052394707 0.069301955 0.06555463 0.08532639 -0.13456039 -0.08043532 0.18676804
0.028672718 -0.0154674975 -0.110552475 -0.05060708 0.10639001 -0.0042286124 -0.025563322 0.07808514
0.15665767 0.24544853 0.16444059 0.016156543 -0.0019809247 -0.11436018 0.05175767 0.06421283
-0.08255773 0.17892209 0.19063315 -0.043384183 -0.03374675 -0.01273224 -0.13080423 0.057384428
0.21268202 -0.012213657 0.24232617 -0.08324587 -0.01803842 0.22833174 0.20760939 -0.062064152
0.08185719 -0.1615429 0.16558136 0.20233211 0.17895141 -0.05362672 0.053837232 0.11773572
-0.23317191 0.078890614 -0.020069119 0.04327207 0.055106416 -0.2096512 0.16965787 -0.15562804
0.14287353 0.17335474 0.052848008 0.26916245 0.061361168 0.40782714 -0.16101688 0.3298952
0.30435532 0.067336746 0.19255061 0.20006222 0.25712815 -0.054605823 0.14168103 0.14526084
-0.050849505 0.24336782 0.067741774 0.15259658 -0.04257478 0.06790268 0.16772418 0.23530516
0.32947946 0.20325838 0.33179682 0.21469943 0.26373604 0.012057254 0.250206 -0.03720776
-0.07817026 0.18616419 0.23457304 0.04996113 -0.08231813 0.062075846 -0.091570556 0.048584014
0.37096155 0.27645427 0.05669153 0.24007662 0.11330177 0.3783732 0.24664512 0.16314177
0.17326698 -0.19663186 0.13655195 0.24965543 0.29120055 0.071782544 0.3431309 0.22765778
-0.10665621 0.19518137 0.07209991 0.09906639 0.0628629 -0.093249895 0.26243368 0.025391195
0.01875875 -0.047730617 -0.17849231 0.1978491 0.14299443 0.24173334 -0.006950611 -0.09631627
-0.18491223 -0.1667213 0.14735791 -0.23557588 -0.3257294 0.12371983 0.04346047 0.35159627
-0.0778104 0.11776614 -0.04359771 0.09255472 -0.16253746 -0.024395803 0.038877036 -0.36718643
-0.22100687 0.24426802 0.10155522 0.19218497 -0.23031268 0.057937942 -0.13240947 -0.20558876
0.06683806 0.12677775 -0.090267755 -0.11551359 0.08935826 -0.067579694 -0.12936443 -0.024051331
-0.13493669 0.12697938 -0.21728949 -0.118101716 0.033116106 -0.25798133 0.14057082 -0.18804401
-0.109266646 0.07485444 0.072759114 -0.08739262 0.16274302 -0.24232714 -0.08895535 0.29344904
-0.0222906 -0.25530106 -0.26465768 0.040198743 -0.033209737 0.07735311 0.2408353 0.058535583
-0.16470993 -0.24805391 0.08486522 -0.2066185 -0.2738477 -0.052799944 -0.025714071 -0.02467894
0.026974184 -0.21795519 -0.19867027 -0.057828527 -0.20308702 -0.117690414 -0.043536622 0.06315191
-0.23095879 -0.1622797 -0.27188283 -0.14066142 -0.27437788 -0.046338703 -0.19267917 -0.17372213
-0.17612849 -0.07783747 -0.15637326 -0.1434368 -0.077465914 -0.13418408 -0.16766612 0.029505873
-0.21178153 -0.15887012 -0.091382675 0.043106396 -0.15043215 0.22470006 -0.2707272 -0.048961673
-0.13998325 -0.31631827 -0.22160035 -0.20165089 -0.24679992 -0.08568672 -0.1396518 -0.004046353
-0.08071151 -0.14451733 -0.0518879 -0.016159378 -0.23707262 -0.1605082 -0.12926751 -0.019501505
-0.20203266 -0.0927201 -0.1977481 -0.0075677694 -0.1252981 -0.28061557 -0.03199056 -0.12570322
00000000: ded8 f6bc 5a33 f13d 8a35 00be ede7 90bc
00000010: 79a8 3f3d dcd9 a7bc b55c f93d 4da8 c33d
00000020: b7c3 653e d59b 563d 2fee 8d3d 8141 863d
00000030: 9abf ae3d 33ca 09be 46bb a4bd 1f40 3f3e
00000040: 0ce3 ea3c 636b 7dbc 5669 e2bd 5f49 4fbd
00000050: 01e3 d93d 2c90 8abb 2c6a d1bc 1aeb 9f3d
00000060: de6a 203e dc56 7b3e 1d63 283e ba5a 843c
00000070: 67d2 01bb ac35 eabd daff 533d 0482 833d
00000080: 0714 a9bd 5a37 373e 5635 433e 9db3 31bd
00000090: 083a 0abd e39a 50bc 8bf1 05be ef0b 6b3d
000000a0: 51c9 593e ca1b 48bc 5a24 783e d07c aabd
000000b0: 4fc5 93bc cccf 693e 8e97 543e fb36 7ebd
000000c0: bea4 a73d 816b 25be 298e 293e 2630 4f3e
000000d0: 0a3f 373e b1a7 5bbd 6e84 5c3d 6d1f f13d
000000e0: 9ec4 6ebe 6791 a13d fe67 a4bc 0e3e 313d
000000f0: 44b7 613d ceae 56be cbba 2d3e f55c 1fbe
00000100: 704d 123e e883 313e 2777 583d a9cf 893e
00000110: d955 7b3d b8ce d03e 9ce1 24be 06e8 a83e
00000120: 76d4 9b3e d9e7 893d fd2b 453e 1cdd 4c3e
00000130: 4da6 833e 5baa 5fbd d514 113e 42bf 143e
00000140: 9247 50bd 6a35 793e 33bc 8a3d 4742 1c3e
00000150: e462 2ebd 8f10 8b3d e3bf 2b3e d6f3 703e
00000160: 88b1 a83e f722 503e 46e1 a93e 2bda 5b3e
00000170: 6908 873e ca8b 453c 001b 803e 2a67 18bd
00000180: bb17 a0bd d3a1 3e3e ea33 703e 0ba4 4c3d
00000190: 6896 a8bd 3e43 7e3d 5889 bbbd 0800 473d
000001a0: acee bd3e 6a8b 8d3e 6135 683d a5d6 753e
000001b0: c20a e83d 22ba c13e 8a90 7c3e a30e 273e
000001c0: e66c 313e dd59 49be 46d4 0b3e aca5 7f3e
000001d0: 3d18 953e ba02 933d daae af3e 1f1f 693e
000001e0: 926e dabd a0dd 473e 1ea9 933d 52e3 ca3d
000001f0: 44be 803d cdf9 bebd b55d 863e 3201 d03c
00000200: f3ab 993c 2e81 43bd b0c6 36be f498 4a3e
00000210: 226d 123e f288 773e f3c1 e3bb 7741 c5bd
00000220: a259 3dbe fdb8 2abe fee4 163e ce3a 71be
00000230: 01c6 a6be d260 fd3d 9b03 323d 6d04 b43e
00000240: 0f5b 9fbd 602f f13d 8393 32bd 548d bd3d
00000250: 3870 26be b5d9 c7bc 873d 1f3d dcff bbbe
00000260: a04f 62be 6521 7a3e 2ffc cf3d 23cc 443e
00000270: 16d7 6bbe 5650 6d3d 5996 07be dc85 52be
00000280: 65e2 883d 07d2 013e 4dde b8bd 6492 ecbd
00000290: 7701 b73d 3967 8abd 1c78 04be 4c07 c5bc
000002a0: d82c 0abe e206 023e 2381 5ebe 50df f1bd
000002b0: c1a4 073d 2116 84be ccf1 0f3e 9c8e 40be
000002c0: 31c7 dfbd 494d 993d bb02 953d e7fa b2bd
000002d0: 1ba6 263e 9b24 78be 392e b6bd f43e 963e
000002e0: c79a b6bc d2b6 82be 3681 87be 70a7 243d
000002f0: ef06 08bd 4f6b 9e3d 879d 763e 02c3 6f3d
00000300: b8a9 28be d801 7ebe d1cd ad3d cd93 53be
00000310: c435 8cbe c144 58bd 51a6 d2bc 7d2b cabc
00000320: f7f8 dc3c a52f 5fbe 3870 4bbe 9bdd 6cbd
00000330: 0bf6 4fbe ac07 f1bd 7553 32bd ca55 813d
00000340: 7680 6cbe a62c 26be 3a34 8bbe 8c09 10be
00000350: 427b 8cbe a7cd 3dbd b04d 45be 37e4 31be
00000360: 075b 34be 4069 9fbd 5020 20be 19e1 12be
00000370: 73a6 9ebd 8d67 09be abb0 2bbe 4db6 f13c
00000380: 42dd 58be d9ae 22be d726 bbbd 5590 303d
00000390: e30a 1abe c617 663e c19c 8abe 098c 48bd
000003a0: c557 0fbe 78f4 a1be 34eb 62be 927d 4ebe
000003b0: 1eb9 7cbe 857c afbd e200 0fbe 4597 84bb
000003c0: 134c a5bd 5afc 13be 6888 54bd ac60 84bc
000003d0: 2ac3 72be 435c 24be b45e 04be 9fc1 9fbc
000003e0: a6e1 4ebe 09e4 bdbd 7a7e 4abe 0dfb f7bb
000003f0: 254e 00be d8ac 8fbe 8908 03bd 58b8 00be

lstm.bias_hh_l0 f4 [256]
-0.063382566 -0.07767422 -0.07375357 0.023369864 0.14052303 -0.054433115 0.021957144 0.11130888
0.07556453 0.22450207 -0.001378039 0.10552167 0.058676515 -0.04243843 -0.008801949 0.2514134
0.124287695 0.025862144 0.06463636 0.021712432 0.06428837 -0.20292766 0.10242842 0.19896404
0.07706907 0.2475046 0.10884825 0.13874629 0.036191143 0.06525216 0.0025345853 0.05389474
-0.07515493 0.19573995 0.093090445 -0.15378557 0.004677386 0.0025703865 -0.09821366 0.036782276
0.13185239 0.08034573 0.27573723 0.104011476 -0.0077927387 0.05814391 0.072780214 0.01482527
0.07100874 0.007324384 0.022052316 0.101207174 0.1377424 -0.089705005 0.0261843 0.218495
-0.12303478 0.14096314 0.18479453 0.07318424 -0.06618639 -0.20060699 0.16863744 -0.20412786
-0.042039506 0.20822875 0.032334503 0.15719987 0.08966954 0.41790915 0.056651663 0.11333447
0.27206874 0.02568854 0.19617994 0.25921795 0.25239095 -0.046480622 0.26397964 0.18303142
-0.04428798 0.3706808 -0.064183146 0.001988091 0.0019599125 -0.031099252 0.04984621 0.19296347
0.26687035 0.1265494 0.085784376 0.18758003 0.24240053 0.020954845 0.10500195 0.00474425
0.024577338 0.14985324 0.35602474 0.08285936 0.025541794 0.031009782 -0.15372808 0.069339246
0.21584795 0.07220863 0.27404708 0.19067565 0.10489801 0.36609298 0.15511906 0.30939487
0.30757675 -0.010841958 0.23479056 0.20779555 0.170556 0.11879924 0.32886875 0.16365471
0.00020028843 0.29802758 0.09017491 0.009275833 0.078529544 -0.12777776 0.15495487 -0.028096551
0.15045132 -0.07313619 -0.1418581 0.23578674 0.15267898 0.28505817 -0.048290506 -0.11355643
-0.23406973 -0.25370187 0.11941475 -0.04343723 -0.25962624 0.068444885 -0.01891625 0.34192044
-0.039650977 0.18242414 0.17335415 -0.0099309115 0.016668508 -0.061471395 0.05680307 -0.20682718
-0.15949178 0.26947877 0.19895975 0.26777598 -0.28142616 0.08854583 -0.05035693 0.012940159
0.115868315 0.112254746 -0.24805202 -0.12204245 0.0061997226 -0.07112823 -0.0006004163 0.1507282
-0.26441458 0.169467 -0.108518146 -0.24707465 -0.14973387 -0.28778175 0.30520618 -0.27349138
-0.18290722 0.059173267 0.019921854 -0.272938 0.11592399 -0.17070705 -0.23776145 0.20770194
0.03949639 -0.27582052 -0.050829798 0.1092787 -0.02514051 -0.11567236 0.15629928 -0.03216818
-0.107368566 -0.18693046 -0.10768577 -0.2126795 -0.08549246 0.08525718 -0.07116415 -0.21833761
-0.05278994 -0.23503329 -0.23153593 -0.03480188 -0.10503591 -0.0675568 0.074306406 -0.11198774
-0.2620281 -0.16663563 -0.29889616 -0.07490551 -0.24256022 -0.041010678 -0.13624358 0.020973198
-0.16593418 -0.17910351 -0.1684744 -0.22205357 -0.009954999 -0.26042145 -0.111552276 -0.0070918566
-0.3688279 0.023804585 -0.027334869 0.04257459 -0.24796502 0.05139448 -0.3632162 -0.13129088
-0.17152463 -0.21788912 -0.15606928 -0.24253944 -0.32297212 -0.095215246 -0.029988572 -0.20205528
-0.112976246 -0.31173828 -0.22829175 -0.005009717 -0.27199757 -0.10636926 -0.19372356 -0.01876927
-0.19850229 -0.15475787 -0.23190294 -0.17991936 -0.11952432 -0.41788352 -0.075462036 -0.03610494
00000000: b8ce 81bd a913 9fbd 1d0c 97bd 2872 bf3c
00000010: 45e5 0f3e 42f5 5ebd 78df b33c e9f5 e33d
00000020: 94c1 9a3d dfe3 653e 519f b4ba bf1b d83d
00000030: c956 703d ebd3 2dbd 0d36 10bc 42b9 803e
00000040: 8c8a fe3d d9dc d33c 1160 843d 45de b13c
00000050: 9fa9 833d 45cc 4fbe fec5 d13d 3bbd 4b3e
00000060: 63d6 9d3d d971 7d3e d5eb de3d 8213 0e3e
00000070: 2a3d 143d eda2 853d 491b 263b bbc0 5c3d
00000080: d4ea 99bd 0e70 483e 34a6 be3d f779 1dbe
00000090: c244 993b ee73 283b 3e24 c9bd 03a9 163d
000000a0: 5004 073e 4d8c a43d 6e2d 8d3e f803 d53d
000000b0: 3b5a ffbb 4f28 6e3d cb0d 953d b0e5 723c
000000c0: 086d 913d 6301 f03b 0fa7 b43c b545 cf3d
000000d0: 580c 0d3e 42b7 b7bd 7580 d63c 27bd 5f3e
000000e0: a9f9 fbbd a458 103e c73a 3d3e 9ee1 953d
000000f0: bb8c 87bd eb6b 4dbe 4baf 2c3e e506 51be
00000100: 9e31 2cbd eb39 553e 2f71 043d 01f9 203e
00000110: aaa4 b73d 30f8 d53e 930b 683d e71b e83d
00000120: 984c 8b3e c670 d23c 65e3 483e 37b8 843e
00000130: 6339 813e 7762 3ebd 5728 873e 976c 3b3e
00000140: 5067 35bd e0c9 bd3e 7472 83bd a24a 023b
00000150: e071 003b dcc3 febc 8a2b 4c3d 3798 453e
00000160: 3ba3 883e 2a96 013e b8af af3d fb14 403e
00000170: d837 783e 7fa9 ab3c 430b d73d a775 9b3b
00000180: 6a56 c93c 2173 193e e048 b63e 2bb2 a93d
00000190: 063d d13c 3a08 fe3c e56a 1dbe bc01 8e3d
000001a0: 3f07 5d3e 1ee2 933d e64f 8c3e 7a40 433e
000001b0: c5d4 d63d 8a70 bb3e 88d7 1e3e 0169 9e3e
000001c0: b37a 9d3e 78a2 31bc f06c 703e 5bc8 543e
000001d0: 3ba6 2e3e 044d f33d 7c61 a83e 1a95 273e
000001e0: 8404 5239 1297 983e a0ad b83d aaf9 173c
000001f0: 19d4 a03d 2cd8 02be 7dac 1e3e bd2a e6bc
00000200: e90f 1a3e 6dc8 95bd 4043 11be 1472 713e
00000210: e157 1c3e 25f3 913e 44cc 45bd 4690 e8bd
00000220: faaf 6fbe 36e5 81be b88f f43d 3deb 31bd
00000230: bbed 84be d52c 8c3d 40f6 9abc 3210 af3e
00000240: 1069 22bd 65cd 3a3e c083 313e 43b5 22bc
00000250: 658c 883c 6ec9 7bbd 56aa 683d 81ca 53be
00000260: d051 23be 1ff9 893e 1bbc 4b3e ef19 893e
00000270: 1717 90be 8457 b53d 1143 4ebd f602 543c
00000280: 5e4c ed3d d1e5 e53d 5901 7ebe 64f1 f9bd
00000290: 0b27 cb3b adab 91bd 4165 1dba 7e58 1a3e
000002a0: 5961 87be c288 2d3e c33e debd 2301 7dbe
000002b0: d653 19be 2158 93be fc43 9c3e 1007 8cbe
000002c0: 084c 3bbe ab5f 723d 2833 a33c 88be 8bbe
000002d0: 8f69 ed3d d4cd 2ebe bd77 73be d1af 543e
000002e0: f7c6 213d 5938 8dbe e832 50bd 83cd df3d
000002f0: 79f3 cdbc a1e5 ecbd eb0c 203e c8c2 03bd
00000300: 0de4 dbbd b36a 3fbe 5b8a dcbd a8c8 59be
00000310: ac16 afbd 519b ae3d 83be 91bd e593 5fbe
00000320: 443a 58bd 91ac 70be c117 6dbe 6b8c 0ebd
00000330: 111d d7bd 385b 8abd f52d 983d d459 e5bd
00000340: 8c28 86be 88a2 2abe eb08 99be 0f68 99bd
00000350: b561 78be d0fa 27bd 7083 0bbe fccf ab3c
00000360: a6ea 29be e966 37be 8e84 2cbe 0362 63be
00000370: 4b1a 23bc f655 85be 8575 e4bd ce62 e8bb
00000380: 03d7 bcbe d501 c33c 60ed dfbc b162 2e3d
00000390: 8bea 7dbe 0583 523d 79f7 b9be 1e71 06be
000003a0: 27a4 2fbe 531e 5fbe a0d0 1fbe 425c 78be
000003b0: 9a5c a5be 3600 c3bd 98aa f5bc 94e7 4ebe
000003c0: 1760 e7bd 299c 9fbe 50c5 69be 8d28 a4bb
000003d0: 4443 8bbe 20d8 d9bd 785f 46be 03c2 99bc
000003e0: 2f44 4bbe d978 1ebe f777 6dbe c83c 38be
000003f0: 2bc9 f4bd d4f4 d5be d78b 9abd c6e2 13bd

fc.weight f4 [1, 64]
0.4896174 -0.61745626 -1.0885848 1.3389301 1.3941971 1.0911024 1.202317 -1.2482324
-1.2342685 -0.5756283 1.2078657 -1.1663002 -1.0620521 1.2666328 0.68356144 1.1712085
-1.3002969 1.1344725 1.3853734 1.1800723 1.4791573 -0.44510475 1.4850228 -1.1476604
-1.1876278 0.48680916 1.1507983 1.2055223 -1.1923933 1.475524 -1.4944606 -1.1936795
1.9850038 1.1621681 -1.1201822 -0.6025116 1.8248469 -0.67687213 2.0439935 1.2806932
-1.2844435 1.6029475 -1.3989233 -0.7150105 -1.7682073 -1.0965844 1.2168678 -1.2156883
-1.2677412 -1.6080617 0.38346952 -1.2566414 0.6944193 -1.5284318 -1.3231965 1.202949
-1.3718545 -1.205615 -1.1106232 -0.4636002 -1.1643993 1.6957233 1.1719848 0.6006863
00000000: 22af fa3e 9d11 1ebf bf56 8bbf 1062 ab3f
00000010: 0d75 b23f 3ea9 8b3f 86e5 993f 14c6 9fbf
00000020: 83fc 9dbf 605c 13bf 589b 9a3f 5349 95bf
00000030: 53f1 87bf 0621 a23f e2fd 2e3f 29ea 953f
00000040: 2170 a6bf 6536 913f ea53 b13f 9c0c 973f
00000050: 0755 bd3f c5e4 e3be 3a15 be3f 89e6 92bf
00000060: 3004 98bf 0d3f f93e 5c4d 933f 8e4e 9a3f
00000070: 58a0 98bf f8dd bc3f 7c4a bfbf 7dca 98bf
00000080: 9b14 fe3f edc1 943f 2162 8fbf 333e 1abf
00000090: 9594 e93f 7e47 2dbf cad0 0240 c1ed a33f
000000a0: a568 a4bf 622d cd3f eb0f b3bf ee0a 37bf
000000b0: 9e54 e2bf e15c 8cbf 53c2 9b3f ad9b 9bbf
000000c0: 5845 a2bf f7d4 cdbf 1e56 c43e a0d9 a0bf
000000d0: 77c5 313f a7a3 c3bf 815e a9bf 3cfa 993f
000000e0: ee98 afbf 9851 9abf e728 8ebf 015d edbe
000000f0: 090b 95bf 760d d93f 9903 963f 94c6 193f

exp_avg f4 [11, 128]
-0.000358095 -0.000356065 -0.00021642202 0.00038467202 -2.8907366e-06 0.00041301656 -1.2235149e-06 -2.7333588e-05
-0.0003592806 0.0003347568 0.00031078048 1.7569322e-05 -9.2508286e-05 -5.0944174e-05 0.00034610668 1.5946232e-06
0.00013504813 -0.0004131504 -4.865749e-05 0.00023804975 -0.0004280805 0.000436416 -0.00021597427 0.00012245562
0.0001075024 0.00016414654 0.00016050518 0.00043710775 -8.429312e-05 -3.5815385e-05 -0.00026626728 -0.0002732752
9.061473e-05 0.0005553448 -0.0003632263 -0.0006531769 -0.0003895745 6.135381e-05 0.00030839245 -8.0558195e-05
-9.484714e-05 -0.00011041417 0.00046127732 8.182448e-05 7.2115305e-05 4.89714e-05 0.0004065146 0.0005625513
0.00021572722 -0.00028048272 1.47074e-05 0.00015020138 -0.00013361589 0.00018409964 0.00012202439 0.0003610995
-0.0003942562 0.00034093973 5.0642226e-05 -0.00016036113 -0.00030034911 0.00070732995 9.454911e-05 0.0003048896
0.00025524964 8.20231e-05 4.1244086e-05 8.685866e-05 -0.0002775506 0.00024448053 -5.2770378e-05 -8.6492866e-05
0.00011523248 1.1706206e-05 -0.0003859084 4.951218e-05 -0.00019179491 0.0004405607 0.00029186995 -6.068607e-05
0.00011393166 0.00019982543 -1.9218834e-05 -0.00013163387 0.00030959566 0.00016163735 -0.00017284436 -0.0005444319
0.00019788597 0.00037125396 -0.00010707498 -0.00026749232 -0.00057077 1.5686901e-05 6.729893e-05 0.0004906128
-7.0450216e-05 -0.00048464353 -0.0002419286 -5.089073e-05 6.0326278e-05 -0.00012711385 0.0001293652 0.00033832752
-0.00042808722 0.0007119399 0.0004693733 0.00028781264 -9.394021e-05 -0.0004795201 2.2889148e-05 -6.132666e-05
-6.833911e-05 -0.00066312397 -0.0001857594 5.5274686e-05 0.00044854416 -0.0007043313 0.0005069563 0.00041795394
-0.00028631135 0.0001504108 0.00017109148 -2.9043842e-05 0.00031549216 0.00022472879 3.5168647e-05 0.00011905745
-0.008719753 -0.007790346 -0.0045697177 0.00890974 0.0013189426 0.009025568 -0.0026614086 -0.0007197077
-0.00834286 0.009012936 0.00703344 0.0015731897 0.00032614637 0.00011568923 0.008253011 -0.0014421252
0.0036212949 -0.010277611 -0.0016227331 0.008216626 -0.00609498 0.00790316 -0.009499132 0.0012677202
0.0056490083 0.0048010843 0.0040218816 0.009934881 -0.0010224885 -0.004146508 -0.007323171 -0.0059624757
6.488243e-05 0.009534411 -0.0064859525 -0.015110303 -0.0110438755 0.0010266455 0.004813961 -0.003789546
-0.00078898796 -0.0019650108 0.010430238 0.0007932551 0.007438173 0.0021829102 0.008534034 0.0091797
0.0036677339 -0.006630779 -0.0004743723 0.0030478502 -0.0041039838 0.00775611 0.00445806 0.006306438
-0.008724621 0.005076071 -0.0005980955 -0.0033378915 -0.0040010093 0.012871319 -0.0006188127 0.0059124413
0.0056699268 0.0035728635 0.0020648404 0.0010003217 -0.009702887 0.0059247296 -0.0038349791 -0.0009170921
7.996787e-05 -0.0028396135 -0.008323913 -5.877823e-05 -0.0040416494 0.011446666 0.007344205 -0.00024702123
0.0021905599 0.0027489427 0.002089782 0.00070931297 0.008282168 0.0047404817 -0.003130028 -0.008765139
0.0018067468 0.0073706047 -0.0033232337 -0.0056202016 -0.011920582 -0.0007505941 0.003396547 0.011539517
-0.0027806244 -0.010724807 -0.006027081 0.00090801704 0.0032959974 -0.007671513 0.0020494075 0.0059507387
-0.008875813 0.014331954 0.010804034 0.00790153 -0.0033674755 -0.010044295 0.0030661626 -0.0059712576
-0.004323099 -0.010412708 -0.004350652 0.0027523718 0.009919562 -0.014913995 0.010013222 0.009238787
-0.0028122235 0.005326671 0.007939127 -0.003023236 0.0066050575 0.0073988596 -0.0008057076 0.004290676
00000000: b3be bbb9 3cae bab9 58ef 62b9 cead c939
00000010: 7afe 41b6 258a d839 a737 a4b5 6f4a e5b7
00000020: d35d bcb9 4c82 af39 40f0 a239 d561 9337
00000030: 0201 c2b8 e4ac 55b8 a775 b539 d606 d635
00000040: b59b 0d39 1c9c d8b9 9515 4cb8 fe9c 7939
00000050: fe6f e0b9 c4ce e439 2777 62b9 6e67 0039
00000060: e972 e138 c01e 2c39 484d 2839 9c2b e539
00000070: 86c6 b0b8 7a38 16b8 ca99 8bb9 6046 8fb9
00000080: 6a08 be38 8f94 113a 696f beb9 f639 2bba
00000090: ce3f ccb9 13ab 8038 bcaf a139 5af1 a8b8
000000a0: ace8 c6b8 288e e7b8 98d7 f139 2f99 ab38
000000b0: 9c3c 9738 a466 4d38 7721 d539 2e78 133a
000000c0: d634 6239 c10d 93b9 cdbf 7637 607f 1d39
000000d0: 3e1b 0cb9 df0a 4139 58e7 ff38 f451 bd39
000000e0: 2cb4 ceb9 28c0 b239 ad68 5438 9d26 28b9
000000f0: 2d78 9db9 1c6c 393a ab48 c638 97d9 9f39
00000100: 07d3 8539 d103 ac38 80fd 2c38 e327 b638
00000110: 3684 91b9 9f2d 8039 c355 5db8 8163 b5b8
00000120: f7a8 f138 c665 4437 c053 cab9 4cab 4f38
00000130: 8e1c 49b9 0efb e639 1f06 9939 2c89 7eb8
00000140: 98ee ee38 3b88 5139 2238 a1b7 3307 0ab9
00000150: 3a51 a239 327d 2939 8e3d 35b9 35b8 0eba
00000160: 9c7f 4f39 dda4 c239 718d e0b8 363e 8cb9
00000170: ba9f 15ba 5d97 8337 d722 8d38 789c 003a
00000180: acbe 93b8 c117 feb9 37ae 7db9 8173 55b8
00000190: d906 7d38 dd49 05b9 35a6 0739 8d61 b139
000001a0: e570 e0b9 7aa1 3a3a 3816 f639 8fe5 9639
000001b0: c401 c5b8 1968 fbb9 1202 c037 809c 80b8
000001c0: 4851 8fb8 7fd5 2dba 69c8 42b9 bed6 6738
000001d0: 942a eb39 e0a2 38ba 43e5 043a d420 db39
000001e0: 0f1c 96b9 97b7 1d39 0567 3339 2da3 f3b7
000001f0: a468 a539 2da5 6b39 0c82 1338 7bae f938
00000200: 4bdd 0ebc 2946 ffbb 92bd 95bb 28fa 113c
00000210: 5fe0 ac3a fadf 133c 076b 2ebb c4aa 3cba
00000220: 7eb0 08bc feaa 133c c578 e63b 7d33 ce3a
00000230: a0fe aa39 2f9e f238 a337 073c b105 bdba
00000240: 3f53 6d3b 6d63 28bc e3b1 d4ba 079f 063c
00000250: 66b8 c7bb 417c 013c 3fa2 1bbc a229 a63a
00000260: 511b b93b 6a52 9d3b fdc9 833b e9c5 223c
00000270: 0505 86ba 6edf 87bb 36f7 efbb df60 c3bb
00000280: 7d11 8838 3836 1c3c 1d88 d4bb 3491 77bc
00000290: 5ff1 34bc 8290 863a 6fbe 9d3b 085a 78bb
000002a0: 16d4 4eba 69c7 00bb 97e3 2a3c 73f2 4f3a
000002b0: ebbb f33b 280f 0f3b 55d2 0b3c 7466 163c
000002c0: 5d5e 703b 0147 d9bb 2cb5 f8b9 71be 473b
000002d0: b67a 86bb f726 fe3b eb14 923b 3ca6 ce3b
000002e0: b6f1 0ebc 2b55 a63b 82c9 1cba 87c0 5abb
000002f0: e61a 83bb 3ae2 523c d137 22ba 27bd c13b
00000300: cbca b93b b426 6a3b 4652 073b 3a1d 833a
00000310: dcf8 1ebc 3c24 c23b 4654 7bbb 0269 70ba
00000320: 6cb4 a738 cf18 3abb 0661 08bc a588 76b8
00000330: d06f 84bb cc8a 3b3c a8a7 f03b a182 81b9
00000340: 7f8f 0f3b 9b27 343b b9f4 083b 30f1 393a
00000350: eeb1 073c 0b56 9b3b 2821 4dbb a89b 0fbc
00000360: 5dd0 ec3a 1d85 f13b 9cca 59bb ab29 b8bb
00000370: 8b4e 43bc 84c3 44ba 9a98 5e3b 3e10 3d3c
00000380: 233b 36bb 1ab7 2fbc d27e c5bb fe07 6e3a
00000390: a901 583b 5161 fbbb 5a4f 063b 6afe c23b
000003a0: dc6b 11bc 92d0 6a3c 6703 313c 6b75 013c
000003b0: ddb0 5cbb d490 24bc acf1 483b 8aaa c3bb
000003c0: c8a8 8dbb 109a 2abc ea8f 8ebb 2361 343b
000003d0: a985 223c d459 74bc 7f0e 243c 485e 173c
000003e0: 484d 38bb 5b8b ae3b 1d13 023c 7c21 46bb
000003f0: 3d6f d83b 2272 f23b 1f36 53ba cd98 8c3b

exp_avg_sq f4 [11, 128]
1.933469e-05 1.6225193e-05 2.2873126e-06 1.0486089e-05 3.2782873e-07 1.1845067e-05 2.6576276e-06 2.8538486e-06
9.594575e-06 3.900275e-06 2.2566144e-05 7.565306e-06 1.1901294e-06 2.1475444e-06 1.3673076e-05 2.7147216e-06
2.106772e-06 2.9991359e-05 2.7950855e-06 1.234521e-05 1.0347627e-05 1.30256585e-05 4.5218453e-06 2.577658e-07
1.8568549e-06 1.9303575e-06 2.8435574e-05 7.602535e-05 1.3753673e-06 6.078494e-06 4.476181e-06 2.4492695e-06
3.0484982e-06 2.637342e-05 5.653463e-05 2.920161e-05 1.4907977e-05 8.2175166e-07 1.2871896e-05 2.9261432e-06
2.4526523e-07 6.73943e-07 4.6140496e-05 8.784348e-06 6.463616e-06 2.7016556e-06 7.348847e-06 3.4645163e-05
6.0604357e-06 2.595565e-05 3.0935948e-06 6.2276933e-07 1.6445605e-06 9.489979e-06 8.552049e-06 7.876787e-06
2.0450605e-05 6.0798734e-06 4.7418494e-06 1.87729e-06 2.6583643e-06 5.2551717e-05 3.735785e-06 9.314693e-06
3.7153893e-06 5.4426863e-07 1.829574e-05 4.241234e-07 2.3681734e-05 8.322773e-06 1.479751e-06 4.2871403e-07
5.007545e-06 1.1684229e-05 7.861944e-06 1.4349536e-06 3.4907441e-06 2.1388898e-05 7.948812e-06 7.997979e-07
1.40039165e-05 1.9699914e-05 5.337738e-06 2.12114e-06 1.912391e-05 1.9561141e-06 2.720546e-06 1.9699479e-05
1.6493409e-06 9.927196e-06 1.3828841e-06 5.3132603e-06 2.7969993e-05 2.0092637e-06 1.6503261e-06 3.8035894e-05
1.9567792e-06 2.1291371e-05 1.1232769e-05 6.409723e-06 1.1822203e-05 2.5317886e-06 1.3283656e-06 5.6381764e-06
2.2647942e-05 4.184842e-05 1.2986775e-05 3.7938284e-05 5.7983823e-07 1.7909575e-05 1.9192325e-06 3.192383e-06
1.8262549e-06 2.9587236e-05 1.0294888e-06 2.381919e-06 2.2781454e-05 4.7840706e-05 1.004282e-05 1.2161672e-05
8.882609e-06 1.2686666e-05 1.1466673e-05 2.9337216e-06 6.384466e-06 2.095173e-06 3.059176e-06 1.7623846e-06
0.0054396377 0.0037505918 0.0008353782 0.0035432754 9.500086e-06 0.003956822 0.00019372061 0.00042099517
0.0035029596 0.0017313219 0.0033565927 2.5109382e-05 0.0002354644 5.9693057e-06 0.0040348773 1.5844296e-05
0.00018726003 0.0042840103 0.00060968444 0.0020793995 0.002429712 0.0045160423 0.0019899246 1.7998635e-05
0.0005111265 0.0006687344 0.001660118 0.005760862 0.0003086878 0.0003816946 0.0009940858 0.0013234419
7.6670105e-05 0.0045149657 0.003135198 0.011970921 0.005984171 4.8632613e-05 0.0029831387 0.00043999904
8.152841e-06 0.00019866807 0.007577158 3.764041e-05 0.001471688 0.00012332399 0.0038394497 0.0061426177
0.0020894741 0.0024100319 3.848106e-05 0.0003254032 0.0003906635 0.001258846 0.0007513797 0.004422138
0.0029479146 0.0012849501 1.257099e-05 0.0006924202 0.0011850684 0.012391488 1.8444021e-05 0.0022152322
0.0022341376 0.00023043879 0.00022702424 7.3448566e-05 0.005089066 0.000790398 0.00043934002 0.00025104068
2.7027521e-05 0.0002773395 0.0033952254 1.3839668e-05 0.0002613929 0.0059577334 0.0040000733 9.1755064e-05
0.00020111517 0.0002771162 2.113454e-05 2.3958375e-05 0.0022241974 0.0010044536 0.0012189088 0.0032662086
0.0003499798 0.0024880294 0.00011432628 0.0022682068 0.008488391 2.7690241e-05 0.0010918262 0.010031703
9.2629925e-05 0.004865151 0.00152069 9.125648e-05 0.00016764073 0.002303758 0.00021173248 0.0011309996
0.005500237 0.012498353 0.0065102945 0.005818912 0.00044589536 0.008393437 0.00019785663 0.00091997074
0.0010208898 0.007487298 0.00047489535 0.00023804759 0.0048627476 0.015950553 0.0050900294 0.005197161
0.0010510423 0.0024616437 0.002254259 0.00043316593 0.0023492638 0.002830608 1.5590951e-05 0.00039698114
00000000: ee30 a237 561b 8837 bb7f 1936 69ed 2f37
00000010: 7000 b034 2dba 4637 b259 3236 bf84 3f36
00000020: 63f8 2037 1bdf 8236 6d4c bd37 7cd9 fd36
00000030: 89bc 9f35 881e 1036 6a65 6537 902e 3636
00000040: 1162 0d36 f495 fb37 3493 3b36 461e 4f37
00000050: b89a 2d37 c788 5a37 5bba 9736 1063 8a34
00000060: 0c39 f935 4a8b 0136 ee88 ee37 cd6f 9f38
00000070: 4399 b835 def5 cb36 1a32 9636 215e 2436
00000080: cd94 4c36 7d3c dd37 991f 6d38 fbf5 f437
00000090: 461d 7a37 5896 5c35 5ff4 5737 c25e 4436
000000a0: ffac 8334 03e9 3435 fb86 4138 7d60 1337
000000b0: 0ae2 d836 174e 3536 1d96 f636 f64f 1138
000000c0: bf5a cb36 55bb d937 8e9b 4f36 622c 2735
000000d0: abba dc35 2637 1f37 c57a 0f37 8b26 0437
000000e0: 578d ab37 b701 cc36 2d1c 9f36 31f7 fb35
000000f0: 5a66 3236 fa6a 5c38 4cb4 7a36 4d46 1c37
00000100: e755 7936 db19 1235 cd79 9937 14b3 e334
00000110: 23a8 c637 0aa2 0b37 db9b c635 022a e634
00000120: 7c06 a836 6207 4437 cbe6 0337 a198 c035
00000130: 8742 6a36 4f6c b337 e35b 0537 b1b1 5635
00000140: 5df2 6a37 3e41 a537 d21a b336 e858 0e36
00000150: 496c a037 c945 0336 a092 3636 4f40 a537
00000160: ec5e dd35 fb8c 2637 899b b935 8f48 b236
00000170: 1aa1 ea37 e3d6 0636 c680 dd35 bb88 1f38
00000180: 3651 0336 df9a b237 6074 3c37 1a13 d736
00000190: fa57 4637 cce7 2936 4b4a b235 912f bd36
000001a0: 16fc bd37 6686 2f38 c6e1 5937 ec1f 1f38
000001b0: 2ea6 1b35 853c 9637 2acc 0036 b93c 5636
000001c0: a41d f535 1b32 f837 f72c 8a35 0fd9 1f36
000001d0: cd1a bf37 91a8 4838 957d 2837 fc09 4c37
000001e0: 8406 1537 d1d8 5437 fc60 4037 f4e0 4436
000001f0: 253a d636 cc9a 0c36 3e4c 4d36 138b ec35
00000200: fd3e b23b 7dcc 753b 48fd 5a3a 4c36 683b
00000210: 8f62 1f37 3ba8 813b 7b21 4b39 04b9 dc39
00000220: e991 653b 86ed e23a 48fa 5b3b fda1 d237
00000230: fee6 7639 f24b c836 0137 843b 5ee9 8437
00000240: 3b5b 4439 e260 8c3b 3bd3 1f3a 8946 083b
00000250: ce3b 1f3b 4ffb 933b 6569 023b c6fb 9637
00000260: 1efd 053a 024e 2f3a 5198 d93a 9dc5 bc3b
00000270: 60d7 a139 2f1e c839 fc4b 823a 5777 ad3a
00000280: f3c9 a038 47f2 933b e577 4d3b af21 443c
00000290: dd16 c43b dffa 4b38 c380 433b acaf e639
000002a0: 2fc8 0837 8e51 5039 cf49 f83b 15e0 1d38
000002b0: a8e5 c03a 8850 0139 479f 7b3b 0348 c93b
000002c0: 8fef 083b a0f1 1d3b b966 2138 e19a aa39
000002d0: f8d1 cc39 ddff a43a 3df8 443a 95e7 903b
000002e0: cd31 413b c56b a83a fee7 5237 8883 353a
000002f0: 4c54 9b3a ab05 4b3c 3cb8 9a37 6e2d 113b
00000300: 9c6a 123b f1a1 7139 5b0d 6e39 6608 9a38
00000310: 2ec2 a63b b632 4f3a 3857 e639 1c9e 8339
00000320: 29b9 e237 e167 9139 6e82 5e3b ec30 6837
00000330: 900b 8939 1739 c33b 0c13 833b a06c c038
00000340: 71e2 5239 e849 9139 144a b137 38fa c837
00000350: d7c3 113b dfa7 833a cbc3 9f3a e30d 563b
00000360: 7e7d b739 350e 233b 74c2 ef38 32a6 143b
00000370: e412 0b3c 5748 e837 9c1b 8f3a 035c 243c
00000380: 5042 c238 d86b 9f3b e451 c73a f360 bf38
00000390: b7c8 2f39 a5fa 163b 8104 5e39 0d3e 943a
000003a0: 553b b43b e4c5 4c3c 4f54 d53b 92ac be3b
000003b0: 10c7 e939 a084 093c bc77 4f39 312a 713a
000003c0: 61cf 853a 0258 f53b 60fb f839 6a9c 7939
000003d0: af57 9f3b bcaa 823c 43ca a63b f24c aa3b
000003e0: 21c3 893a 8753 213b 31bc 133b 8c1a e339
000003f0: 1bf6 193b b981 393b 50c9 8237 e821 d039
