code/part1/model_deepsets.pth.tar (torch, 123490 bytes, 12 tensors)

embedding.weight f4 [11, 128]
000000 b6 4e 03 40 36 47 10 bf 11 55 74 3f fd 70 be 3f
       2.0516791 -0.5635866 0.954423 1.4878231
000010 fa 33 68 3d fa 5a 2e 3f e8 9b 5d 3f 18 d7 c5 be
       0.056690194 0.6810757 0.8656602 -0.38640666
000020 5f 9e db bf fd 9d 66 bf 14 bb c0 3f b3 7a a7 be
       -1.7157706 -0.9008482 1.5057092 -0.327108
000030 f8 02 6a 3f 89 31 75 3e 14 cc 7d 3f 22 00 32 3f
       0.9141078 0.23944677 0.99139524 0.6953145
000040 f0 b0 80 3f 18 bf 2f 3e 3d 6a a7 bd 66 1b cb be
       1.0053997 0.1716274 -0.0817456 -0.3966934
000050 32 7a 9e be 64 45 7a bf 61 5e 94 bf d6 7a 12 3f
       -0.30952603 -0.9776213 -1.1591302 0.5721868
000060 73 f9 df 3e ba d4 9b 3f e2 8d 48 bf 21 d4 50 bf
       0.43745002 1.2174294 -0.78341496 -0.81573683
000070 54 b9 6b 3c b4 7e 45 bf a0 7c 07 bf 87 25 52 3f
       0.014387447 -0.7714646 -0.5292454 0.8208851
000080 41 47 8e 3f 52 a2 0a bf 84 3f c7 bf 0f 5d 9d 3f
       1.1115495 -0.5415393 -1.5566258 1.2294024
000090 8f 97 d2 3c d2 25 02 c0 6f 5c 9d be 61 70 d7 3f
       0.025707034 -2.0335584 -0.30734584 1.683117
0000a0 93 8d 2f 40 38 0e 45 bf f2 3d af be 30 32 49 be
       2.743016 -0.7697482 -0.34226948 -0.19648051
0000b0 6f 87 df bf 7d 44 0e 3e d8 b4 ce 3d 27 58 23 3f
       -1.7463206 0.13893314 0.10093087 0.63806385
0000c0 56 dc a5 3f 4d fb 4a 3f de 2d 3e c0 d3 b5 32 bf
       1.2957866 0.79289705 -2.9715495 -0.6980869
0000d0 e2 be 92 bf 7d 6c 07 40 ee a2 a4 3e cd 37 41 3f
       -1.1464503 2.1159966 0.32155555 0.7547577
0000e0 15 69 66 bf 6b 9d 7b 3f 4a f9 af 3f 3f 71 e9 bf
       -0.9000409 0.98287076 1.3747952 -1.8237685
0000f0 21 5f 81 3f 25 25 04 40 e8 d1 5c bf eb 89 d5 3f
       1.0107156 2.0647671 -0.8625779 1.6682714
000100 78 d5 5d 3f 6a 1e 21 3f a9 e9 56 3f de 25 a5 3e
       0.8665385 0.62937033 0.8395029 0.32255453
000110 25 72 fc be 11 de 2e bf 44 05 5b bf 5c 95 10 bf
       -0.49305835 -0.68307596 -0.8555491 -0.56477904
000120 4d 9a 10 40 ac de 12 bf 23 6c 2b c0 66 16 1a bf
       2.2594178 -0.5737102 -2.6784751 -0.6019043
000130 74 c1 5a 3f f1 39 11 3f 5f d5 bd 3e d9 98 1a 3f
       0.85451436 0.56729037 0.37076852 0.60389477
000140 8e c9 bb be 3a 11 83 3f 1a 2f 95 3f fe b2 8b 3f
       -0.36677212 1.0239632 1.1654999 1.0913999
000150 7b ee 86 bf 91 08 94 3f 94 0e 1b 3f 6e 8d 75 3e
       -1.0541528 1.1565114 0.6056912 0.23979732
000160 1c f1 a5 bf 46 e1 83 3f 97 d4 ff 3e e4 c4 8c 3f
       -1.2964206 1.0303123 0.4996688 1.0997586
000170 96 da 12 bf 37 71 e7 3f 55 dd e5 3f 82 eb 16 40
       -0.57364786 1.8081425 1.795817 2.3581243
000180 77 76 9f 3e 89 66 29 40 90 e9 9d bd 1a de b0 bf
       0.3114507 2.6468832 -0.07710564 -1.381778
000190 ca f8 37 bf 7d 54 95 3e 65 72 08 c0 2e a9 3e 40
       -0.71863997 0.29166022 -2.131982 2.979076
0001a0 23 38 81 bd 4b 4e 0e 3d 8c 3b a6 be d8 de bb be
       -0.06309535 0.034742635 -0.32467306 -0.36693454
0001b0 a6 ee 5f bf ca 17 ba 3e 12 73 b4 bf ab 14 62 3e
       -0.87473524 0.36346275 -1.4097617 0.22078197
0001c0 d2 c2 c0 bf 03 bd 4b 3d 50 a2 dd 3e 93 6b 58 bd
       -1.5059454 0.049740802 0.43287897 -0.052836966
0001d0 c5 e6 c9 bf 36 af de be d2 e4 cb be 5e 4b af bc
       -1.577355 -0.4349305 -0.39823014 -0.021398243
0001e0 7f 88 7a 3e 21 3e 55 bf 1d 12 4f 3c 18 84 98 bf
       0.24466132 -0.83297926 0.012638596 -1.1915312
0001f0 d3 e9 17 40 28 53 89 3f 0b e7 c2 3d 35 6d 1d c0
       2.3736465 1.0728502 0.09516724 -2.4597905
000200 06 88 c8 bf b9 3a 4a 3f aa 5a 95 3e c3 cd 3d 3f
       -1.5666511 0.78995854 0.29170734 0.7414209
000210 67 5c 89 3e 71 8f 1a be 55 1e 74 bf 9a e5 70 bf
       0.2682831 -0.15093781 -0.95358783 -0.94100344
000220 36 95 9e 3f 52 b7 6e 3f 20 90 9c 3f 09 e5 58 bf
       1.2389286 0.93248475 1.2231483 -0.8472448
000230 a5 35 95 3f d1 60 4a bf 3f 91 66 3f ad ab af bf
       1.1656996 -0.7905398 0.9006538 -1.3724266
000240 d7 a5 96 3e 6d fc 34 bf 8c 31 8b bc 2b 08 32 3e
       0.294234 -0.7069767 -0.0169914 0.17385928
000250 27 61 30 3f 3c 5c d2 3d 58 73 06 3e 26 5f ec bf
       0.6889824 0.102714986 0.13129938 -1.8466537
000260 01 46 09 bf ff ba b1 3e 03 fd a5 3f 14 39 50 bf
       -0.5362244 0.3471298 1.2967838 -0.81337094
000270 87 c1 bf be 96 bb 2c bf 12 5e 14 40 6f d4 a3 bd
       -0.37452337 -0.67473733 2.3182416 -0.07999503
000280 53 73 e7 bf 19 49 32 3f 2e b7 ce 3f 76 e5 fd 3f
       -1.8082069 0.6964279 1.6149652 1.9835651
000290 55 1e c6 3e ad 31 92 bf 6b 8e 6d bf b0 60 79 bf
       0.38695017 -1.142141 -0.9279544 -0.9741316
0002a0 b7 bb 59 3f 3d f6 4a be c2 11 12 c0 4e 37 26 be
       0.85052055 -0.19820495 -2.2823339 -0.16232035
0002b0 d1 c8 19 40 e5 86 1f 3f 71 90 02 40 14 8d 8f bf
       2.4028819 0.6231521 2.040066 -1.1214929
0002c0 88 4a 90 bf 8d e6 6a 3f 93 03 c3 be a3 b8 04 bf
       -1.1272745 0.9175804 -0.38088664 -0.51844233
0002d0 53 d0 3f bf ba e2 62 3e d0 79 09 bf 00 11 84 3f
       -0.7492725 0.22156802 -0.53701496 1.0317688
0002e0 5e b9 8b 3e ee 17 fd 3e 32 d3 9d 3f 91 1e 89 be
       0.2728986 0.4943232 1.2330077 -0.26781133
0002f0 3a bc c7 bf 90 4b 1c 3f e8 a6 81 3f d7 6e 15 bf
       -1.5604317 0.610528 1.0129061 -0.58372253
000300 cd 9c c2 bc 0d 8a fa 3f f1 e3 4a bf d1 34 82 be
       -0.023756409 1.957338 -0.7925406 -0.2543092
000310 b2 86 d8 3e 4c 9a 33 bf 4f e9 bc 3f ae 8e 16 bf
       0.42290264 -0.70157313 1.47587 -0.5881146
000320 e8 80 4d 3e 8b 5a 02 bf 9b 01 85 3f 70 1e f2 3d
       0.20068705 -0.5091941 1.0391115 0.11822212
000330 4f c2 fa 3f 2a e4 be bf 95 f5 32 bf e9 8b d2 bf
       1.9590548 -1.491338 -0.6990598 -1.6448947
000340 08 1d 8d 3f 25 f9 fc 3f 09 57 81 bf 7d 9f b0 3f
       1.1024485 1.9763533 -1.0104686 1.3798672
000350 23 f3 e8 be d7 c0 f9 3e 58 1a 82 be d0 fc cd 3d
       -0.45498 0.48779938 -0.25410724 0.10057986
000360 9a 77 78 be 8e aa e3 bf 9f ee 92 3f 7e d6 a8 bf
       -0.24264374 -1.7786424 1.1479071 -1.3190458
000370 80 7e 89 3d b7 50 0c 3f c0 01 e9 3d ce c5 8c bf
       0.06713581 0.5481066 0.11377287 -1.0997865
000380 f5 33 d7 bd ee 4e 31 bf 46 ba 49 3e 65 8d 5a 3d
       -0.10507957 -0.6926106 0.19699964 0.0533575
000390 9a 4b 0e bf 8b 46 12 3e e3 fd 7a 3f 9a 81 fc 3e
       -0.5558411 0.14284723 0.9804365 0.49317628
0003a0 f8 90 4e 3f 27 68 94 3d 07 f7 a3 3f e3 1b e0 3f
       0.80689955 0.07246428 1.2809762 1.750851
0003b0 99 dd cd 3e c7 80 ad be f0 41 41 bf 79 c2 99 bc
       0.40208128 -0.33887312 -0.7549124 -0.01876949
0003c0 1a b9 87 bf 2f 5f 50 bf a3 fe 9d bf e2 59 33 3f
       -1.0603364 -0.8139524 -1.2343334 0.70059025
0003d0 02 07 89 bf 78 6b 9c bf dd df cd 3e e4 96 d9 be
       -1.0705264 -1.2220297 0.40209857 -0.42497933
0003e0 53 96 17 3f db a2 20 bf 81 33 0a bf 41 08 06 3f
       0.5921375 -0.627485 -0.5398484 0.52356344
0003f0 cf 7c e2 3f b0 1a 5c 3f 14 74 9b bf b9 6c 72 bf
       1.7694339 0.8597822 -1.2144799 -0.9469715

fc1.weight f4 [64, 128]
000000 ba f3 9f 3c ac 8e 01 3d 88 b5 cb 3d 3c 88 ac 3d
       0.019525398 0.031630203 0.09946734 0.08424422
000010 c3 11 b4 3c e1 27 f1 bd c1 6e 98 3d 47 60 9c 3d
       0.021981126 -0.117751844 0.07443 0.07635551
000020 0a 1a 1d 3e 05 60 d3 3c d0 fe 58 bc f5 ad 1e be
       0.15341964 0.025802622 -0.013244346 -0.15496047
000030 f1 06 83 ba fb 0f 79 bd 82 14 b3 bd cf 77 67 3d
       -0.0009996576 -0.060806256 -0.08744146 0.056510743
000040 64 ea 16 3d 5f 00 42 be c3 8d 51 3d 38 51 19 be
       0.036844626 -0.18945454 0.051160585 -0.14972389
000050 62 38 cc 3d 99 e3 93 3c 01 88 b6 bd 06 44 48 bc
       0.09971692 0.018052863 -0.089126594 -0.012223249
000060 43 c1 80 bd fc 88 8c 3d bd 5f f4 bc d6 35 42 3d
       -0.06286862 0.06862065 -0.029830808 0.047414623
000070 90 95 2e be d6 5f b0 bc 4a fd 47 3d 86 1d 37 3e
       -0.17049241 -0.021530073 0.04882554 0.17882356
000080 62 2d 3f 3e b5 d1 18 be 59 0c cb 3d 0e 70 f7 3d
       0.18669656 -0.14923747 0.099144645 0.120819196
000090 f3 23 70 be 58 81 ec bc 97 f1 18 be 4c f0 20 3d
       -0.23451214 -0.02887027 -0.14935909 0.039291665
0000a0 c8 25 f9 3d f1 f0 3c bd be 40 af bc 59 46 68 be
       0.12165409 -0.046128217 -0.021393176 -0.22683086
0000b0 99 62 12 bd 9e 0e 37 3e bd 25 11 3e 0a 91 04 3d
       -0.03573856 0.1787667 0.14174552 0.032364883
0000c0 8f 78 e5 3d 09 f5 d7 bd 2b 96 44 bd 34 34 e2 bd
       0.11204635 -0.105447836 -0.047994774 -0.11045113
0000d0 1f 63 5f be 30 34 f8 bc 23 8b f8 3d dd eb 08 3e
       -0.21815155 -0.030298322 0.12135913 0.13371225
0000e0 b8 4a fd 3d 4c 79 08 3e e5 38 ee 3d c1 f7 6a bd
       0.12367767 0.13327521 0.116319455 -0.057365183
0000f0 c5 42 4c bd 96 31 a8 3d 08 fe f4 bd 9c 6b c1 3c
       -0.049868364 0.08212583 -0.11962515 0.023610882
000100 46 eb b3 3c 7e 30 30 3d 4d de 45 be af 8b fc bc
       0.021962773 0.043014996 -0.19323082 -0.030828325
000110 b8 85 cd bd 1d 77 8e bd d1 a1 6c 3d b1 b4 35 be
       -0.100352705 -0.06956313 0.057771508 -0.1774471
000120 96 38 ba bc a1 d3 00 3e a1 42 e9 bc 5d 9b 85 3d
       -0.02273206 0.1258073 -0.028474154 0.06523774
000130 79 3c 20 3e e6 25 6f bc 16 4c fe bb 2a fb a1 bd
       0.15648068 -0.014596438 -0.007760535 -0.07909234
000140 7c 90 21 bd 29 8b 01 3d 99 a0 2e 3e 7c 8e d7 3d
       -0.03944443 0.031626854 0.1705345 0.105252236
000150 aa de 9b 3d f2 1f 1f 3c 16 70 85 bd 4d 07 a6 bc
       0.07610829 0.009712206 -0.06515519 -0.020267153
000160 3b 6e c3 bb 1b 4f 26 bd 48 32 36 3e e0 af 48 3d
       -0.005964068 -0.040602785 0.17792618 0.048995852
000170 12 63 85 3d a8 f6 b5 3d 0f 65 5c bd 9e b1 a2 b9
       0.06513037 0.088849366 -0.053807314 -0.00031031383
000180 88 e5 12 3d 11 e0 f7 3d 60 d4 a6 bd 3f 9f f5 bd
       0.03586343 0.12103284 -0.08145976 -0.119932644
000190 de 99 68 bd 5d ee 9d bc ca fe 3a bc 0e cc b1 3d
       -0.056787364 -0.0192787 -0.0114132855 0.086814985
0001a0 3f 5d aa 3d 79 d4 30 3c 01 b3 ad 3d bc fe 9f bc
       0.083185665 0.010792845 0.08481408 -0.019530647
0001b0 cf dc 15 3d 21 43 97 3d a5 97 90 3d 80 ee fa 3b
       0.036587533 0.07385851 0.07060174 0.007657826
0001c0 b9 f9 ee bd 50 d7 3c bd c2 a1 c8 bd 44 df a8 bc
       -0.116687246 -0.046103776 -0.09796478 -0.020614274
0001d0 cd 52 30 bd f2 aa a0 bd 9d 39 c0 bd 93 66 97 3d
       -0.043047715 -0.07845105 -0.09385989 0.07392611
0001e0 4a c9 1e 3e a0 d6 43 be 3a 91 49 be 47 2a a4 bd
       0.15506473 -0.19124842 -0.19684306 -0.08015876
0001f0 9c fa 07 3e cc 39 e7 3d 16 fd e9 bd 74 ed 28 be
       0.13279194 0.11290321 -0.114252254 -0.16496831
000200 c5 b9 39 3e 9e 51 4e bd 1d 69 43 3d 95 d6 79 bd
       0.18137272 -0.050370805 0.047707666 -0.060995657
000210 e8 b8 30 bd 55 62 b8 3d 1e ed 24 3e 56 fa 50 3e
       -0.04314509 0.0900313 0.16106078 0.20407996
000220 15 18 7f 3d 88 97 a9 3d db 9b 38 3c b1 f1 16 3d
       0.062278826 0.082808554 0.011267628 0.03685159
000230 67 53 78 bc 9b f1 6c 3d 12 15 de bd 2b c6 5b 3e
       -0.015156603 0.0578476 -0.108438626 0.21462314
000240 fd 2c 8c 3d be 1c 13 be a3 54 54 3e a3 57 ce bd
       0.06844518 -0.14366433 0.20735411 -0.10075309
000250 fa 72 8d 3d 0c ea cd bd c5 13 f6 bd a4 d2 36 3e
       0.06906696 -0.100544065 -0.120154895 0.1785379
000260 11 71 b0 3d 27 ba e1 3b 0c 89 e8 bd a9 87 37 3e
       0.08615316 0.006888646 -0.113542646 0.17922844
000270 c4 61 88 bd 20 a5 20 3e 69 1b eb bd ba 31 39 3e
       -0.06659272 0.1568799 -0.114798374 0.18085375
000280 01 3f 81 3e 7d 7f 8a be 7a 0b 33 be 2e 9e 00 3e
       0.2524338 -0.2705039 -0.17484847 0.12560341
000290 39 5e 13 be 76 65 07 3d cf 4f 4d bd b8 45 1e 3e
       -0.14391412 0.033055745 -0.05012494 0.15456283
0002a0 07 fe 54 3b 2a c5 a2 3d 48 bd a1 bb 8e 64 92 bd
       0.0032500045 0.07947762 -0.004935894 -0.071480855
0002b0 c4 f1 b0 3b 32 53 94 3d 19 ec 17 be 17 b1 b4 bd
       0.0053999145 0.07242431 -0.14836158 -0.0882284
0002c0 73 50 4b 3e 14 18 d6 bd ed ec 21 3d ef aa c5 bd
       0.19854908 -0.10453811 0.03953259 -0.096517436
0002d0 f8 b6 2e be 85 a2 d0 bd 17 13 62 3d 19 74 9a bc
       -0.17061985 -0.10187248 0.055193987 -0.018854188
0002e0 69 74 2a 3c 85 60 fd bd 46 a9 01 3d c2 02 94 bd
       0.010403731 -0.12371925 0.031655572 -0.072270885
0002f0 11 85 be bd 97 94 9a 3d 63 31 89 be e0 e3 df 3c
       -0.09302724 0.075478725 -0.26795492 0.027330339
000300 29 16 a8 bd 05 03 ae bd c8 de ff bd 91 43 c8 bc
       -0.08207352 -0.0849667 -0.12493664 -0.02444628
000310 48 9a 66 bd 36 62 47 bd f5 73 52 be bd c3 34 bc
       -0.056299478 -0.048677646 -0.20552047 -0.011032996
000320 da 8b 4f 3d f3 6e f8 3d 03 0c 70 bd b8 71 1f 3c
       0.050670482 0.12130537 -0.058605205 0.0097317025
000330 69 1e d7 3d e0 2b 8c bd a5 51 07 bd f9 49 7f 3c
       0.10503847 -0.06844306 -0.033036847 0.015581601
000340 f7 ff 1f be 1e 69 2d bd 66 be ae 3e 29 43 ff 3d
       -0.15624987 -0.042336576 0.34129637 0.12463982
000350 9e eb 74 3d cc fa 83 3d bf d0 7b 3c 9c 27 a1 3c
       0.059795015 0.0644432 0.015369593 0.019672208
000360 7f ea b3 3d e3 cd 07 3d 3e b8 ef 3d 1a ce 04 3e
       0.08784961 0.033155333 0.11705063 0.12969247
000370 c2 b5 4f bd bd 5d cc 3d ae bf d5 bd dc 1e 14 3e
       -0.050710447 0.09978817 -0.104369506 0.14464897
000380 69 ca 09 3b 99 1b 07 3d ac 5a 7d bb d0 9c 40 be
       0.0021025187 0.032985304 -0.003865878 -0.18809819
000390 25 ca 11 be 4d 9b 9a 3d 56 96 0e be 39 9f 47 3d
       -0.14237268 0.075491525 -0.13924536 0.04873583
0003a0 b8 06 22 be dd ee 0d 3e ee 81 21 bd c6 53 56 bd
       -0.15822875 0.1386065 -0.03943055 -0.052325986
0003b0 87 b5 04 3e 87 6f 07 3e b4 c4 02 bc 15 e3 3f bd
       0.12959872 0.13226138 -0.007981468 -0.04684742
0003c0 a3 ef 0d 3d eb 21 0c bd 12 41 22 3d 06 cf 24 bd
       0.034652364 -0.034212034 0.039612837 -0.040236495
0003d0 3f d8 20 bc bc 74 ad bd 1d 74 09 be d5 61 e6 3c
       -0.009817182 -0.08469531 -0.134232 0.028122822
0003e0 cf 73 f2 3d 23 af 93 bd d2 c7 6c bc 8a d9 31 be
       0.11838495 -0.07211139 -0.014451938 -0.17368141
0003f0 79 76 e8 3c cb 38 30 3d af 8c 48 3d f1 6b ed bc
       0.028376805 0.043022912 0.04896229 -0.028982135

fc1.bias f4 [64]
000000 84 2e 33 3e 71 99 13 3e fc 06 11 3d 9f 79 0d 3e
       0.17498213 0.14414002 0.03540705 0.13815926
000010 b2 22 1c 3e e6 83 b3 bc c9 a8 79 bd 19 2f a8 3c
       0.1524761 -0.02191348 -0.06095198 0.02053027
000020 dc 4f 0e be 8b 2b 1f be b7 08 13 3e bb e5 77 bd
       -0.13897651 -0.15543954 0.14358793 -0.060521822
000030 07 39 15 be 6f b8 a0 39 86 49 46 3b c0 ca 15 be
       -0.14572535 0.00030654992 0.0030256226 -0.14628124
000040 45 6b 52 3d 41 3b 84 bd 5d ce 89 3d 7f ff 00 bd
       0.05137183 -0.06456614 0.06728814 -0.03149366
000050 a7 25 82 bd 7b 5e 06 3e 81 89 4c bd ae 6c 98 3d
       -0.06354838 0.13121979 -0.04993582 0.07442604
000060 e6 57 6a bd 82 7e 42 3d 1a 4f d4 3d 35 a2 ef bd
       -0.057212733 0.04748393 0.1036665 -0.117008604
000070 98 9a ed 3d 10 b8 09 be 36 0d 6f 3d 33 2a 24 bc
       0.11601752 -0.1344912 0.05836221 -0.010019827
000080 4b 85 b3 3d 67 cd 03 3e 0a bb ed 3d 8b 6a 32 be
       0.08765658 0.12871324 0.116079405 -0.17423455
000090 e1 e7 73 bd 03 8e f2 3d a1 30 2f be 3e aa ec 3d
       -0.05954731 0.11843493 -0.17108394 0.115559086
0000a0 a8 3d 29 be cd cd 36 3e 7e 14 7d 3d c6 4e 9d 3d
       -0.16527426 0.17851944 0.06178712 0.076810405
0000b0 f6 f2 d4 bc c4 bc d1 bd b8 db a3 bc 06 fb 2d be
       -0.025994759 -0.10241082 -0.020002231 -0.16990289
0000c0 86 14 19 be fb 2c 92 bd af 6d ea bd 5f 2a 19 3e
       -0.14949235 -0.071374856 -0.11446702 0.1495757
0000d0 37 0d 06 be ea 4f 46 be 24 f7 95 3d 78 cc 62 3d
       -0.13090979 -0.19366422 0.07322529 0.055370778
0000e0 23 ac 04 be 53 b6 49 3b 4f 3c f4 3c a6 ec 26 be
       -0.1295629 0.003077884 0.029813914 -0.16301212
0000f0 4d b5 8f bd bb 68 c4 3d 69 71 23 be 11 eb 24 3e
       -0.07017002 0.09590288 -0.15961231 0.16105296

fc2.weight f4 [1, 64]
000000 2d e5 26 3e d3 03 06 3e a8 b8 13 3e 57 67 27 3e
       0.16298361 0.13087396 0.1442591 0.16348015
000010 15 80 52 3e bd e8 07 3e 19 73 5e be 4f 9a 0d 3e
       0.20556672 0.13272376 -0.21723594 0.13828395
000020 1b 4b ff bd 77 b7 df bd f3 ba 13 3e 98 ec cc bd
       -0.12465497 -0.10923665 0.14426784 -0.10006064
000030 7b 1a 21 be d5 16 0e 3e 41 2b 38 3e 64 55 2b be
       -0.15732758 0.13875897 0.1798525 -0.16731793
000040 35 90 3b be 77 b5 00 be b1 e2 91 3d df 48 69 3e
       -0.1831673 -0.12569223 0.07123316 0.22781704
000050 eb 4d 1b be d0 f0 b1 3d 8a 4f 5c be 53 e1 07 3e
       -0.15166442 0.086885095 -0.21514717 0.13269548
000060 18 14 34 be 3a 3b 2d 3e e9 0b 19 3e 8c b1 16 be
       -0.1758579 0.16917124 0.1494595 -0.14716166
000070 d9 c6 03 3e cb 5c 8b be d5 f4 32 3e 94 00 47 3e
       0.12868823 -0.27219233 0.17476209 0.19433814
000080 47 04 28 3e e8 9c 1c 3e 75 1c da 3d 5b 62 16 be
       0.16407882 0.1529423 0.10649959 -0.14685957
000090 cc 21 18 be f0 19 d9 3d b1 b4 0a be aa 1b 55 3e
       -0.14856642 0.1060065 -0.13545491 0.20811334
0000a0 ad ec bd bd 97 1c f6 3d 24 e2 bc 3d 15 b5 50 be
       -0.09273658 0.12017172 0.092228204 -0.20381577
0000b0 63 5f 4a be f3 a2 47 be 0c 4c 48 be ee 9b eb bd
       -0.1976295 -0.19495754 -0.1956026 -0.115043506
0000c0 cb 2d 06 be e7 54 36 be 12 5a 5b be 5e 7e d8 3d
       -0.13103406 -0.17805825 -0.21421078 0.10570978
0000d0 86 a5 4c be 74 12 1f be 05 44 38 3e 8d b8 10 3e
       -0.19985017 -0.15534383 0.17994697 0.141329
0000e0 d1 bc 80 be 99 82 58 be 79 3e 13 3e 28 c4 fc bd
       -0.25144055 -0.21143569 0.143793 -0.12342101
0000f0 dd c8 7f be c3 91 e4 3d 7b 9f bd bd 63 00 eb 3d
       -0.24978967 0.11160614 -0.09258934 0.11474683

exp_avg f4 [11, 128]
000000 a6 c8 d6 37 2a 90 77 b8 90 24 86 37 12 2b 8f b7
       2.5604222e-05 -5.9023652e-05 1.599107e-05 -1.7066985e-05
000010 7c dc 09 38 79 2d 22 38 8e 1e 64 b7 b2 99 c6 38
       3.2868687e-05 3.866616e-05 -1.3596973e-05 9.470004e-05
000020 13 80 b9 b6 86 8d 0a b6 a4 0c 1f b8 d1 4f 94 38
       -5.5283394e-06 -2.064598e-06 -3.7920327e-05 7.072057e-05
000030 fd 71 99 b7 cc 89 01 38 86 f2 40 b8 a5 e6 ed 37
       -1.8292101e-05 3.088433e-05 -4.6002235e-05 2.8360004e-05
000040 d6 be 39 38 9b 5e 63 b8 af b5 c3 38 e4 54 66 b8
       4.4285167e-05 -5.4209126e-05 9.332166e-05 -5.4915334e-05
000050 55 12 47 38 f3 ae 2d 37 a8 60 c5 b8 d4 a0 b6 38
       4.746237e-05 1.0352337e-05 -9.411696e-05 8.708393e-05
000060 0f b5 a6 38 5f de 35 38 d5 01 dd 36 b6 31 a7 38
       7.9492216e-05 4.3360862e-05 6.5865265e-06 7.97244e-05
000070 6b 68 04 b8 89 58 2d 38 f9 8b 0a b8 21 47 84 38
       -3.15685e-05 4.132887e-05 -3.3032124e-05 6.307499e-05
000080 83 e4 a7 38 3c 23 81 b8 47 77 ad b6 ea 28 8a b6
       8.005744e-05 -6.157762e-05 -5.1696875e-06 -4.1174835e-06
000090 e8 5a a0 b8 72 00 cf b6 1c 08 b3 b8 0d 5f 32 37
       -7.646327e-05 -6.1691326e-06 -8.5368956e-05 1.06317575e-05
0000a0 3a b7 84 37 90 9a 59 b7 f1 4a 13 38 4e 76 02 b8
       1.5820948e-05 -1.2970195e-05 3.5117326e-05 -3.1104595e-05
0000b0 10 7f 97 b7 f9 2d 04 38 fd 4b 22 b9 54 bc 77 b8
       -1.805977e-05 3.1514068e-05 -0.00015477832 -5.9064783e-05
0000c0 fb 41 a3 38 07 33 41 38 57 02 83 b6 df 3a 5c b8
       7.7847355e-05 4.606231e-05 -3.9043766e-06 -5.2506915e-05
0000d0 f5 58 a3 b8 0f 93 1d 38 82 32 a3 38 3e 65 0b 38
       -7.789015e-05 3.7568676e-05 7.7818535e-05 3.323447e-05
0000e0 5f 76 18 37 ec cd 43 b7 bc 96 83 38 32 94 22 37
       9.087466e-06 -1.1670851e-05 6.274643e-05 9.690457e-06
0000f0 0f 82 56 b8 dc ae 37 38 d9 7c 87 b7 23 b6 37 38
       -5.1142702e-05 4.379345e-05 -1.615139e-05 4.3800228e-05
000100 89 8b bd b8 43 1a 95 b8 03 62 8f b7 47 a2 a9 b7
       -9.038213e-05 -7.109765e-05 -1.7092569e-05 -2.0221936e-05
000110 ec 93 36 b8 ca 25 48 b8 99 c7 93 b8 00 90 b4 b8
       -4.3529944e-05 -4.771891e-05 -7.046684e-05 -8.609891e-05
000120 3e 42 28 37 85 42 c7 38 2b ca b2 37 bc 51 76 38
       1.00290035e-05 9.50145e-05 2.1313395e-05 5.872709e-05
000130 03 42 29 38 5e ee f6 37 34 95 b5 37 b9 01 ec b7
       4.0354218e-05 2.9436484e-05 2.164636e-05 -2.8134195e-05
000140 89 3a a3 b8 6e 2d 5c b7 39 7f 82 b6 ba 90 a7 38
       -7.783349e-05 -1.3123599e-05 -3.8891126e-06 7.990138e-05
000150 a2 c2 40 b7 85 ee 11 b8 23 54 a3 b8 22 b6 5f 38
       -1.1489408e-05 -3.4792833e-05 -7.7881174e-05 5.3336968e-05
000160 d0 ca c8 b7 29 81 0f 38 ec f7 92 38 43 07 fb 37
       -2.39363e-05 3.4214147e-05 7.0080016e-05 2.9924913e-05
000170 4f 86 23 37 0b 89 ad 37 2f 10 9e 37 ac a4 80 38
       9.746828e-06 2.0687023e-05 1.8842604e-05 6.134188e-05
000180 7d 42 ab 38 28 eb c7 36 9b d7 ae 38 71 33 84 b8
       8.1663e-05 5.958038e-06 8.337126e-05 -6.303832e-05
000190 e5 87 b5 b8 e6 f6 5c 38 4d b5 da b7 d7 86 c4 b4
       -8.656065e-05 5.268203e-05 -2.607205e-05 -3.6605954e-07
0001a0 88 69 7f b8 e3 5b a3 38 1f a2 55 38 c3 49 80 b8
       -6.089502e-05 7.789561e-05 5.0934144e-05 -6.117255e-05
0001b0 37 43 82 37 74 94 57 38 4d 9f 33 36 da c1 5b b8
       1.5528507e-05 5.1398252e-05 2.6765804e-06 -5.2394207e-05
0001c0 37 c9 ea b6 c2 7c 5c b8 3e 5f c0 37 08 25 17 38
       -6.997168e-06 -5.2568277e-05 2.2932534e-05 3.6035693e-05
0001d0 3f d9 8e b8 ad 19 3d 38 7d b2 13 b9 b9 54 03 b8
       -6.811553e-05 4.5085024e-05 -0.00014085505 -3.1311738e-05
0001e0 b4 5d c1 37 e7 4b 17 37 3b f5 e3 b8 55 db 41 b8
       2.3051027e-05 9.017974e-06 -0.00010869881 -4.6219055e-05
0001f0 55 49 1d 38 db 15 43 38 36 c6 6f b8 68 13 8f b8
       3.7500013e-05 4.6511977e-05 -5.716664e-05 -6.822386e-05
000200 4a cf b3 b6 d9 0e b2 b7 2a 4e 23 37 fd b0 d1 b7
       -5.3587473e-06 -2.1226168e-05 9.733756e-06 -2.4997158e-05
000210 c9 ad e3 37 f3 1d 13 38 34 91 79 b7 dd 58 9a 38
       2.7141434e-05 3.5075424e-05 -1.4875364e-05 7.359844e-05
000220 e5 0e 75 37 dc e9 fc 37 7a 0b 06 b8 7d 75 8a 38
       1.4606606e-05 3.014964e-05 -3.1958778e-05 6.602237e-05
000230 5c bd 5e b6 fc e8 73 37 a4 19 fa b7 7f f0 6e b5
       -3.31908e-06 1.4538175e-05 -2.9814262e-05 -8.9011877e-07
000240 8f 9f 08 38 03 ff 5e b8 f0 3d bc 38 82 29 3e b8
       3.2573527e-05 -5.3166423e-05 8.976075e-05 -4.5338187e-05
000250 26 0c 36 38 98 24 bd 37 5c 50 9d b8 fb 0e 47 38
       4.3403496e-05 2.2547596e-05 -7.5013115e-05 4.745925e-05
000260 12 f7 91 38 45 52 1c 38 45 97 aa 37 1f 02 95 38
       6.960159e-05 3.7269918e-05 2.033602e-05 7.105269e-05
000270 e3 36 ec b7 b5 be 22 38 f5 54 a9 36 d4 02 ff 37
       -2.8158951e-05 3.880142e-05 5.046483e-06 3.0399686e-05
000280 67 65 0d 38 a9 29 35 b8 5e a4 00 38 20 7f 3e 37
       3.3711458e-05 -4.3192562e-05 3.0670657e-05 1.1354481e-05
000290 75 eb 49 b8 7e 66 2e b7 3f 36 b4 b8 1b 46 6d b7
       -4.814142e-05 -1.03950715e-05 -8.593173e-05 -1.41426235e-05
0002a0 8b 99 89 b5 68 07 13 b7 24 71 9e 36 5f 00 88 b7
       -1.0251982e-06 -8.763607e-06 4.7219382e-06 -1.6212636e-05
0002b0 6f ae 8d 37 b6 c4 f9 37 bc 3a dd b8 14 25 76 b8
       1.6889737e-05 2.9774714e-05 -0.00010549041 -5.8685502e-05
0002c0 59 1a 1b 38 d8 6d 1e 38 fe 9c ba 37 82 ed 23 b8
       3.6979418e-05 3.7772435e-05 2.2246033e-05 -3.9083425e-05
0002d0 18 88 6a b8 17 80 11 37 09 a1 7a 38 30 5a 14 38
       -5.5916695e-05 8.672497e-06 5.975462e-05 3.5369943e-05
0002e0 d8 ed 7c 37 65 2f 06 b8 6f a3 49 38 68 bc fc 37
       1.5075748e-05 -3.199223e-05 4.8074344e-05 3.0128474e-05
0002f0 12 25 8a b8 68 52 0b 38 95 8d 90 35 68 fc fb 37
       -6.587258e-05 3.321693e-05 1.0770042e-06 3.0039067e-05
000300 f1 cd ad b8 55 fe 5e b8 37 c1 df b7 b4 83 2a b8
       -8.2876424e-05 -5.316579e-05 -2.6673644e-05 -4.0653817e-05
000310 91 b3 fe b7 dd 02 1b b8 fb 1c 2f b8 b3 9f 92 b8
       -3.0362777e-05 -3.6957546e-05 -4.175024e-05 -6.991569e-05
000320 5e 3c d1 36 a7 44 9c 38 e8 ff 06 38 e8 16 77 38
       6.235713e-06 7.451447e-05 3.218642e-05 5.8910722e-05
000330 5c c4 45 38 6c bd 8d b7 75 00 0b 37 97 96 1d b8
       4.7151334e-05 -1.6896716e-05 8.285152e-06 -3.7571965e-05
000340 c0 ab 56 b8 90 4a 8e 36 0f c8 17 b8 27 e2 7d 38
       -5.118153e-05 4.24061e-06 -3.6187525e-05 6.053052e-05
000350 9f 0a a2 b7 88 4a 52 b8 54 92 9b b8 63 be 31 38
       -1.931685e-05 -5.0137314e-05 -7.418232e-05 4.23774e-05
000360 fe 71 f3 35 c7 cb fc 36 1d 5d 72 38 db a7 a7 36
       1.8138087e-06 7.533908e-06 5.7784015e-05 4.996529e-06
000370 cc 81 6a 37 0b 4d a3 36 1f 30 4e b6 3a 86 fe 37
       1.3977708e-05 4.8667475e-06 -3.0724402e-06 3.0341664e-05
000380 5b 7e 76 38 e2 1f f6 b7 59 c9 97 38 aa 9f b7 b7
       5.8768648e-05 -2.9340332e-05 7.237745e-05 -2.188965e-05
000390 ea 7d a2 b8 23 7b 4d 38 32 e8 58 b6 67 17 c0 b7
       -7.748215e-05 4.899049e-05 -3.2321664e-06 -2.2899081e-05
0003a0 f4 87 36 b8 da 6b 94 38 c4 68 7b 38 89 56 16 b8
       -4.3518798e-05 7.077279e-05 5.9940634e-05 -3.584338e-05
0003b0 02 d3 da 37 77 70 10 38 42 d7 ee b6 9c 56 6a b8
       2.6085883e-05 3.4437016e-05 -7.118012e-06 -5.587061e-05
0003c0 e7 91 57 b7 2c e8 70 b8 88 07 0c b7 9b 8a 1b 38
       -1.2848969e-05 -5.7436686e-05 -8.346404e-06 3.7083966e-05
0003d0 c2 a6 6b b8 4b 99 24 38 23 ef e5 b8 a5 6a 2c b8
       -5.618367e-05 3.9243412e-05 -0.000109641136 -4.1107316e-05
0003e0 50 14 b3 37 6c e4 24 36 6a 9c cc b8 61 26 93 b7
       2.1347922e-05 2.4570863e-06 -9.7566124e-05 -1.7541637e-05
0003f0 8f 2d ed 37 e2 a2 38 38 22 63 91 b8 ea 20 53 b8
       2.8273816e-05 4.4020715e-05 -6.932604e-05 -5.0336974e-05

exp_avg_sq f4 [11, 128]
000000 0e 7e a0 33 81 99 c3 34 4c 71 a5 32 e0 21 41 32
       7.47351e-08 3.643327e-07 1.926005e-08 1.1241781e-08
000010 bb 98 da 33 2f 9c 1b 34 95 cd df 32 0c f6 86 35
       1.01791976e-07 1.4492319e-07 2.6054105e-08 1.0055387e-06
000020 a7 79 15 32 50 bb d4 30 83 3b 09 34 de f6 24 35
       8.700602e-09 1.5478268e-09 1.278077e-07 6.1454e-07
000030 a8 40 b2 32 77 26 18 34 92 d0 65 34 2b 84 9b 33
       2.075133e-08 1.4170097e-07 2.1403164e-07 7.241791e-08
000040 99 19 45 34 d5 0c bd 34 11 97 87 35 22 ce d1 34
       1.8356367e-07 3.521333e-07 1.010225e-06 3.9079265e-07
000050 08 b9 8f 34 b0 58 52 32 02 c4 82 35 7a d1 5a 35
       2.6770454e-07 1.2243774e-08 9.7428e-07 8.1516157e-07
000060 47 19 3e 35 26 f8 5e 34 9e c3 40 32 25 de 38 35
       7.08173e-07 2.0765637e-07 1.1220349e-08 6.8868604e-07
000070 42 11 ca 33 aa 93 4e 34 4a 3f e8 33 68 7a e6 34
       9.409497e-08 1.9238965e-07 1.0814854e-07 4.29299e-07
000080 c6 56 3e 35 4a 5f c4 34 76 9d ce 30 10 26 f0 30
       7.090679e-07 3.6577177e-07 1.5033226e-09 1.7473116e-09
000090 2c 86 31 35 6b 94 3a 32 42 a1 5a 35 15 2d 37 32
       6.6132884e-07 1.0860371e-08 8.144599e-07 1.0662252e-08
0000a0 df e2 2b 33 8d 38 cf 32 f0 04 0e 34 cc c2 00 34
       4.0020378e-08 2.4123688e-08 1.3226577e-07 1.1991796e-07
0000b0 86 53 58 33 ca 1f f7 33 b3 8f 38 36 26 51 bf 34
       5.0367383e-08 1.1507616e-07 2.750178e-06 3.5635566e-07
0000c0 e4 b2 44 35 b5 85 88 34 1c 64 64 31 81 29 98 34
       7.327601e-07 2.542926e-07 3.3235272e-09 2.8342404e-07
0000d0 76 b3 32 35 25 dc 3f 34 b4 ab 37 35 aa 30 f9 33
       6.657132e-07 1.7868349e-07 6.8422673e-07 1.1603818e-07
0000e0 5f b9 95 31 85 fe 80 32 df 38 f1 34 42 26 d8 31
       4.357545e-09 1.5016903e-08 4.4931127e-07 6.290777e-09
0000f0 97 ea 96 34 82 6c 8f 34 d0 a2 fe 32 d0 77 61 34
       2.8110364e-07 2.6714775e-07 2.964353e-08 2.0998345e-07
000100 1b 48 75 35 67 a4 0a 35 9c 20 35 33 9d 81 80 33
       9.137454e-07 5.1648243e-07 4.2172005e-08 5.984041e-08
000110 86 be 61 34 ad 19 68 34 66 ed 18 35 ec bb 66 35
       2.102407e-07 2.1616025e-07 5.696987e-07 8.595514e-07
000120 5c 84 0c 33 4e 00 85 35 97 d6 05 33 96 48 c3 34
       3.271667e-08 9.909361e-07 3.1161644e-08 3.6374394e-07
000130 d8 53 37 34 2d 13 b1 33 9d 34 86 33 38 07 a6 33
       1.7073705e-07 8.245693e-08 6.2494316e-08 7.7312905e-08
000140 bb 40 37 35 3e 14 d4 32 76 50 22 31 7f eb 45 35
       6.826701e-07 2.4689253e-08 2.361984e-09 7.373091e-07
000150 a3 de 7d 32 86 7b 21 34 fb 43 2c 35 42 3a a8 34
       1.477716e-08 1.5039231e-07 6.417392e-07 3.1334827e-07
000160 bf e2 8d 33 24 3e ed 33 1a 00 0f 35 78 0a d4 33
       6.607069e-08 1.1047476e-07 5.32718e-07 9.8739235e-08
000170 02 85 c8 31 fa 32 6d 33 de c3 52 33 2e c6 f0 34
       5.8358873e-09 5.5227225e-08 4.9072575e-08 4.4847678e-07
000180 0a ee 82 35 da 1d 9f 31 ba b1 4b 35 6d 96 e5 34
       9.755033e-07 4.6309028e-09 7.588202e-07 4.2764023e-07
000190 58 76 68 35 08 3e 9b 34 d7 ab b5 33 a2 81 23 31
       8.659895e-07 2.8916133e-07 8.459727e-08 2.379331e-09
0001a0 d7 bc bf 34 17 53 2e 35 06 98 91 34 38 3d c8 34
       3.571392e-07 6.494096e-07 2.7118966e-07 3.7297445e-07
0001b0 5a 48 48 33 31 a8 9a 34 7c 2e 9f 30 94 9e 95 34
       4.6631932e-08 2.880711e-07 1.1581984e-09 2.7868793e-07
0001c0 e3 69 5e 32 b0 2b a1 34 dc 36 2c 33 ea 36 11 34
       1.2946177e-08 3.0020374e-07 4.0096765e-08 1.3524155e-07
0001d0 9a 93 0e 35 48 0a 4a 34 b6 67 18 36 74 fa 1c 34
       5.311391e-07 1.8816456e-07 2.2710133e-06 1.4619746e-07
0001e0 e1 b6 93 33 0c c9 0f 32 b8 96 bf 35 24 42 78 34
       6.8784864e-08 8.369408e-09 1.4274474e-06 2.3120862e-07
0001f0 53 34 1f 34 37 2c 79 34 67 34 bf 34 64 95 0f 35
       1.4827064e-07 2.3206017e-07 3.561465e-07 5.3489043e-07
000200 cb 22 7d 31 0f b5 6f 33 59 bc fe 31 e4 51 81 33
       3.6836123e-09 5.5811196e-08 7.4137856e-09 6.0219264e-08
000210 66 45 c5 33 79 c5 3a 34 ef 7c 34 33 ea 4b 75 35
       9.186151e-08 1.739444e-07 4.2023142e-08 9.138008e-07
000220 10 d9 bf 32 26 b3 0b 34 5e 38 12 34 eb 71 5d 35
       2.2334035e-08 1.3010558e-07 1.3617816e-07 8.249469e-07
000230 9f 4c 4e 31 fb a4 8a 33 41 c1 0a 34 53 e7 37 31
       3.00205e-09 6.4561355e-08 1.2922557e-07 2.6761497e-09
000240 5e 2d 10 34 0b 91 02 35 52 60 b4 35 20 ee d5 34
       1.342755e-07 4.863984e-07 1.3439078e-06 3.98476e-07
000250 0d 77 aa 34 5b 3e c7 33 e2 31 70 35 bf 99 b7 34
       3.1751588e-07 9.278002e-08 8.9479556e-07 3.419827e-07
000260 06 67 50 35 03 ec 57 34 de cc cb 33 5e 92 55 35
       7.7635957e-07 2.0109296e-07 9.490189e-08 7.9561676e-07
000270 d3 07 d3 33 46 54 8f 34 37 6d 81 31 3c fd 0a 34
       9.8268764e-08 2.6697143e-07 3.7668104e-09 1.2944378e-07
000280 a0 b4 3a 34 6e ec 87 34 3b 61 32 34 36 36 dc 32
       1.7388311e-07 2.5317735e-07 1.6612914e-07 2.5636023e-08
000290 15 dd c6 34 46 6b b6 32 f5 54 9e 35 73 7c fc 32
       3.7041232e-07 2.123637e-08 1.1796643e-06 2.9393254e-08
0002a0 6a f7 07 30 17 7b 77 32 97 22 9c 31 d7 67 42 33
       4.946431e-10 1.440528e-08 4.54413e-09 4.5263587e-08
0002b0 b8 59 00 33 6e 19 17 34 6e 96 04 36 fa e7 0a 35
       2.988392e-08 1.4072222e-07 1.9757094e-06 5.1746576e-07
0002c0 de 4b 84 34 d1 fa 74 34 3a d0 be 33 5d f4 60 34
       2.4642117e-07 2.2815517e-07 8.885441e-08 2.0950525e-07
0002d0 3f 85 f9 34 38 06 58 32 16 73 1d 35 63 9f 41 34
       4.6476814e-07 1.2574269e-08 5.865453e-07 1.803251e-07
0002e0 66 af c2 32 5d f0 43 34 f6 d3 c4 34 85 3a 13 34
       2.2664334e-08 1.8248234e-07 3.6662067e-07 1.3711731e-07
0002f0 f9 92 36 35 5c 1e 64 34 0b 35 4f 30 18 69 11 34
       6.8014157e-07 2.12452e-07 7.538154e-10 1.354241e-07
000300 71 b6 95 35 29 de eb 34 30 db 02 34 f6 f2 9f 34
       1.1154463e-06 4.3933804e-07 1.2186933e-07 2.9792835e-07
000310 f2 3d 12 34 65 6b 31 34 1c f0 b1 34 f6 4f 4f 35
       1.3619845e-07 1.652348e-07 3.3143522e-07 7.722987e-07
000320 c0 30 0c 33 1b ba 6e 35 cb bf 08 34 5a 56 10 35
       3.2640628e-08 8.893273e-07 1.2735761e-07 5.376984e-07
000330 86 ff a9 34 90 16 67 33 d8 be b2 32 e2 8b 4d 34
       3.166462e-07 5.38044e-08 2.0808713e-08 1.9143002e-07
000340 ed ea ea 34 73 13 cc 30 fe 65 60 34 a4 4a 1e 35
       4.3756827e-07 1.4848481e-09 2.089873e-07 5.8968203e-07
000350 f1 3a 6e 33 29 81 f8 34 43 f7 6c 35 7e cc 94 34
       5.54673e-08 4.6287576e-07 8.8276664e-07 2.7715936e-07
000360 9a 45 fd 30 39 3a 93 31 8b a0 02 35 b9 d4 87 31
       1.8427955e-09 4.2848822e-09 4.8662395e-07 3.953201e-09
000370 f4 24 ad 32 5d 56 9b 31 2e 4b af 30 c4 51 40 34
       2.0156655e-08 4.520912e-09 1.2754293e-09 1.791114e-07
000380 e1 bb 5a 35 6b d0 0e 34 f8 c4 5a 35 d7 30 83 33
       8.148473e-07 1.3300603e-07 8.1497956e-07 6.109047e-08
000390 61 db 86 35 56 db bb 34 0c f3 05 32 37 93 89 33
       1.0047626e-06 3.4991052e-07 7.796881e-09 6.406338e-08
0003a0 fc 91 91 34 bc 1f 50 35 02 65 10 35 1e 17 43 34
       2.7114572e-07 7.753222e-07 5.3791166e-07 1.81692e-07
0003b0 35 1b 22 34 5d 47 3d 34 ee e7 99 32 85 34 fd 34
       1.5097324e-07 1.7627958e-07 1.7917014e-08 4.7163135e-07
0003c0 8a 34 19 33 a6 00 0a 35 05 4a e0 32 4e a9 4c 34
       3.5670872e-08 5.140995e-07 2.6110692e-08 1.9060573e-07
0003d0 9a ff 02 35 75 a6 6a 34 24 1b 07 36 a8 2c b1 34
       4.8800723e-07 2.1853505e-07 2.0132366e-06 3.300131e-07
0003e0 94 c7 99 33 f6 ba a1 30 32 fa d8 35 46 61 2d 33
       7.160921e-08 1.1767429e-09 1.616607e-06 4.036817e-08
0003f0 55 7d cf 33 d0 16 97 34 51 b2 47 35 90 5d d7 34
       9.6619864e-08 2.814254e-07 7.439276e-07 4.0114946e-07

exp_avg f4 [64, 128]
000000 93 c6 5c 35 18 68 e7 b8 fc 34 e0 b6 73 ea b1 38
       8.224535e-07 -0.00011034327 -6.6818884e-06 8.483687e-05
000010 8d 7c e9 b5 9f b9 da b8 96 a6 b8 37 a7 48 d3 38
       -1.7396102e-06 -0.00010429625 2.2012082e-05 0.000100747966
000020 32 6e 78 38 fb 82 c4 38 b9 2c 4f b9 32 68 b2 b8
       5.9230435e-05 9.370405e-05 -0.00019757719 -8.507109e-05
000030 dc e9 34 b9 76 8f 17 b9 9c 8d 46 b9 7e 0b 12 38
       -0.00017253257 -0.00014453926 -0.00018935505 3.4819815e-05
000040 89 73 af 37 cb 55 4d 37 8f 1e e7 38 5d e7 a5 38
       2.0915426e-05 1.2238927e-05 0.0001102063 7.910908e-05
000050 90 2b 56 39 72 60 05 39 f4 7d e4 b7 2b 08 ec 38
       0.00020424859 0.00012719797 -2.723837e-05 0.00011254878
000060 27 71 59 39 dc b8 6d 38 46 96 4e b9 29 e6 ef 38
       0.00020736885 5.6677367e-05 -0.00019701672 0.00011439279
000070 8f 14 ee b8 42 99 82 38 0d 08 ba 38 ed 08 4f 39
       -0.00011352554 6.2274295e-05 8.870671e-05 0.00019744383
000080 9a ba 33 39 b3 6d 21 b7 6b ca 9e b8 50 5b 93 37
       0.00017140285 -9.621889e-06 -7.5717304e-05 1.7566286e-05
000090 48 73 6b b9 de ba b3 b8 4f 5e c6 b8 bf 12 3c b7
       -0.00022454292 -8.570192e-05 -9.458942e-05 -1.1210038e-05
0000a0 0a cb 59 38 f3 7d d5 38 5e 59 3f 39 b0 19 e5 37
       5.1925927e-05 0.00010180091 0.00018248471 2.7310889e-05
0000b0 4e da e4 38 8c 31 7d 39 f4 ef 31 b7 61 ae 07 b9
       0.000109125496 0.00024146418 -1.0605891e-05 -0.00012939564
0000c0 f2 88 0f 39 56 9b 42 b8 53 88 09 39 67 64 ed b8
       0.00013688559 -4.6397872e-05 0.00013116123 -0.00011319742
0000d0 ee 7f 80 b8 c1 07 2e 38 5d f0 63 39 c2 95 92 39
       -6.1273444e-05 4.1492054e-05 0.0002173795 0.00027958868
0000e0 91 e7 1c b8 69 8f 37 38 92 dd 0b b9 36 77 95 38
       -3.740896e-05 4.376416e-05 -0.00013338614 7.1270784e-05
0000f0 6d ae e6 b7 5c 83 14 b9 35 61 05 b8 64 36 3c 39
       -2.749936e-05 -0.00014163315 -3.1800202e-05 0.00017949339
000100 85 ad 41 37 11 69 20 b9 fe 95 9d 36 d9 cf ba b7
       1.1544097e-05 -0.0001529793 4.696426e-06 -2.2269714e-05
000110 aa 8a 8b b9 e0 38 98 b7 2c aa bf 38 32 61 04 b7
       -0.0002661546 -1.8146296e-05 9.139287e-05 -7.890443e-06
000120 04 09 17 b9 21 3c ee 38 cb d8 1d 39 63 b9 04 39
       -0.00014403841 0.00011359924 0.00015053448 0.00012657563
000130 73 0c 1f 39 63 9f c3 b7 3b 68 8f b8 1c c2 17 b6
       0.0001516806 -2.3320032e-05 -6.838186e-05 -2.261374e-06
000140 49 6e e9 b8 52 d2 bf 38 35 c8 20 36 92 f1 35 39
       -0.00011130848 9.146765e-05 2.3958394e-06 0.00017351497
000150 57 01 3c 37 8b 02 ca b7 e8 a9 02 39 41 30 51 39
       1.1205985e-05 -2.408146e-05 0.00012461061 0.00019949769
000160 c5 a2 9f b8 9d e6 87 39 b2 60 14 39 6e 4f 9b b8
       -7.612029e-05 0.00025921027 0.00014150402 -7.405771e-05
000170 b5 4e 16 39 c3 5d 99 37 d4 4d ca b7 ae 5c 40 b7
       0.00014334435 1.8282683e-05 -2.4116518e-05 -1.14656705e-05
000180 76 fb ed b6 fd 92 17 b7 6c 6d 41 39 b0 da 5f b8
       -7.0924243e-06 -9.034525e-06 0.00018446677 -5.337101e-05
000190 37 63 ee b8 65 b8 a1 38 c5 82 1d b8 83 4b 47 b8
       -0.000113672046 7.7114244e-05 -3.7553506e-05 -4.7515623e-05
0001a0 f9 59 b5 b7 fa f6 e8 38 6a e3 19 39 bb ee 0b b9
       -2.1618778e-05 0.00011108625 0.00014675935 -0.00013345007
0001b0 45 2c 3c b9 ad 26 03 39 1d bb 8e b8 cf 82 48 b9
       -0.00017945569 0.00012507541 -6.80594e-05 -0.00019122216
0001c0 5e 93 96 b8 69 9f d0 b8 06 0b 5c b8 07 7f 1d b8
       -7.180007e-05 -9.947905e-05 -5.2462354e-05 -3.755002e-05
0001d0 2e e0 d5 b8 d1 dd 65 36 43 fb bb b8 bf dd 37 b8
       -0.00010198388 3.4252773e-06 -8.963656e-05 -4.3837117e-05
0001e0 23 17 89 b8 18 9f 1c 38 82 9a 78 b7 43 8d 74 b9
       -6.5369786e-05 3.7341466e-05 -1.4817926e-05 -0.00023322277
0001f0 72 ac 12 39 9d 65 9b 37 02 dc 42 b8 73 70 90 b8
       0.00013987886 1.8524757e-05 -4.6458103e-05 -6.8874004e-05
000200 62 1c 83 35 b0 ba 6b b8 ba 70 6e b6 7f cb 2c 38
       9.768521e-07 -5.6202232e-05 -3.553038e-06 4.1197516e-05
000210 4d fb 82 b4 74 92 48 b8 ca b1 6c 37 3a 62 59 38
       -2.4397232e-07 -4.782011e-05 1.4108091e-05 5.1828312e-05
000220 10 3b cd 37 e0 64 48 38 cb a3 da b8 c9 74 22 b8
       2.4465407e-05 4.7777663e-05 -0.00010425559 -3.8732574e-05
000230 d4 d4 b3 b8 54 66 95 b8 9e 31 cb b8 f1 50 8f 37
       -8.5750275e-05 -7.123934e-05 -9.689036e-05 1.708462e-05
000240 0a ac 4d 37 5d 5f f1 36 76 47 71 38 79 48 22 38
       1.2259008e-05 7.1934614e-06 5.752543e-05 3.8691305e-05
000250 fa 0a d8 38 4a 5f 89 38 79 2d 90 b7 b1 1a 78 38
       0.00010301727 6.550418e-05 -1.7187313e-05 5.9152666e-05
000260 6d 60 eb 38 0f 2a f3 37 5f ae d9 b8 04 a2 7e 38
       0.00011223634 2.8987442e-05 -0.000103798455 6.0709208e-05
000270 41 61 69 b8 8b 95 0d 38 4b e6 2c 38 a6 fb d0 38
       -5.5642104e-05 3.3756292e-05 4.1222473e-05 9.965086e-05
000280 20 1a b4 38 5a 8a b0 b6 5b 56 2c b8 e7 e3 09 37
       8.587935e-05 -5.261315e-06 -4.108842e-05 8.218899e-06
000290 8a 25 e7 b8 20 e7 32 b8 b6 44 55 b8 c2 27 89 b6
       -0.000110219305 -4.265376e-05 -5.084715e-05 -4.0875466e-06
0002a0 f5 ea db 37 65 67 5a 38 91 90 c5 38 46 6d 8c 37
       2.6216245e-05 5.2071544e-05 9.4206196e-05 1.6740185e-05
0002b0 21 db 5d 38 ca d1 f9 38 48 c9 21 b7 95 f5 87 b8
       5.2894586e-05 0.000119123215 -9.643212e-06 -6.483045e-05
0002c0 ee ac 94 38 30 34 b5 b7 30 3b 8f 38 21 73 6c b8
       7.0894006e-05 -2.1601183e-05 6.829796e-05 -5.6374007e-05
0002d0 1a ee f0 b7 b5 e4 ab 37 a0 bc e7 38 cc 0d 16 39
       -2.8721104e-05 2.0491289e-05 0.000110500725 0.00014310254
0002e0 6e 2b ca b7 58 bc 9d 37 0c c0 8f b8 9c 96 21 38
       -2.41005e-05 1.8803563e-05 -6.854543e-05 3.8525657e-05
0002f0 a2 81 1f b7 9d 57 99 b8 02 1c 99 b7 b9 b1 c6 38
       -9.507321e-06 -7.311928e-05 -1.8252063e-05 9.474479e-05
000300 75 51 a0 36 1f e3 a4 b8 1e 9a bd 36 57 42 41 b7
       4.7778544e-06 -7.862434e-05 5.6505805e-06 -1.1519142e-05
000310 13 38 0e b9 5f 89 b3 b6 98 d4 31 38 0a fa 65 b6
       -0.00013563065 -5.350608e-06 4.2398082e-05 -3.42692e-06
000320 a0 16 95 b8 50 94 6f 38 d4 95 a1 38 98 8a 84 38
       -7.109088e-05 5.7120167e-05 7.704986e-05 6.3200656e-05
000330 d6 08 9d 38 ef 2a 64 b7 64 34 09 b8 25 d1 04 36
       7.487989e-05 -1.3599855e-05 -3.2712138e-05 1.979127e-06
000340 84 8b 75 b8 8a b4 3e 38 bb 1f be 33 d8 d7 b9 38
       -5.8542486e-05 4.546767e-05 8.853336e-08 8.8616915e-05
000350 28 b3 40 36 2a 93 67 b7 e2 e1 81 38 8e 0b de 38
       2.8714512e-06 -1.3802937e-05 6.193273e-05 0.00010587937
000360 53 10 22 b8 39 5e 0b 39 bd 8e 94 38 22 a9 1e b8
       -3.8639013e-05 0.00013291174 7.083777e-05 -3.7827653e-05
000370 14 9d 94 38 f4 e9 d7 36 e5 29 2d b7 53 d6 14 b5
       7.086448e-05 6.434735e-06 -1.0321358e-05 -5.544618e-07
000380 e1 ca 12 b6 c0 f9 99 b6 ce c9 cb 38 03 33 d2 b7
       -2.1873786e-06 -4.58883e-06 9.717383e-05 -2.5057705e-05
000390 36 aa 7c b8 d6 1a 37 38 6d bc c1 b7 22 4e da b7
       -6.0240003e-05 4.3655593e-05 -2.3095135e-05 -2.6024009e-05
0003a0 ce 36 73 b7 ce f6 77 38 9c 1c 98 38 71 ba 90 b8
       -1.4496689e-05 5.9119244e-05 7.253254e-05 -6.9011825e-05
0003b0 4c d1 c1 b8 0c f4 86 38 d2 c9 15 b8 98 84 d2 b8
       -9.241942e-05 6.435075e-05 -3.5712328e-05 -0.00010038278
0003c0 27 42 12 b8 67 bd 56 b8 be 49 db b7 63 a9 9d b7
       -3.487072e-05 -5.119797e-05 -2.6141173e-05 -1.8794735e-05
0003d0 ed 65 55 b8 b6 9f b7 36 b7 a2 4f b8 6b dd c6 b7
       -5.0878083e-05 5.472418e-06 -4.9504186e-05 -2.3706545e-05
0003e0 f0 d1 11 b8 88 c2 a3 37 a3 45 81 b6 1d ec f9 b8
       -3.4766214e-05 1.95217e-05 -3.8526064e-06 -0.00011917225
0003f0 e3 25 94 38 c8 05 23 37 92 be d6 b7 86 2a 15 b8
       7.064247e-05 9.716903e-06 -2.559953e-05 -3.556397e-05

exp_avg_sq f4 [64, 128]
000000 86 b6 02 34 46 6c 04 36 05 ff 67 34 76 48 81 34
       1.2173595e-07 1.9732556e-06 2.1606327e-07 2.4080845e-07
000010 7d 9d 89 34 5a 0c 19 35 af 14 4b 34 81 74 c6 35
       2.5632826e-07 5.7014915e-07 1.8913373e-07 1.4786057e-06
000020 e4 98 b9 35 9c c6 47 35 72 85 b9 36 d7 9d 93 35
       1.3828071e-06 7.442229e-07 5.5289647e-06 1.0998291e-06
000030 28 6e 4e 36 35 7d 60 36 59 ce 83 36 b4 1e 98 34
       3.0760511e-06 3.3451481e-06 3.9281263e-06 2.8334546e-07
000040 9d 6b 33 35 87 82 9e 34 60 aa c3 35 c0 f1 90 34
       6.6839294e-07 2.9524764e-07 1.4578218e-06 2.6997986e-07
000050 96 c1 7c 36 95 a0 99 35 d9 28 b9 35 c9 59 18 36
       3.7663608e-06 1.1446124e-06 1.3795462e-06 2.2702027e-06
000060 cf a8 da 36 7e 1b 41 35 75 f0 94 36 aa 26 75 36
       6.516558e-06 7.193811e-07 4.4387366e-06 3.653035e-06
000070 c9 d0 26 36 73 6c a7 34 f8 b7 2f 35 2b a6 a3 36
       2.4857457e-06 3.118508e-07 6.546029e-07 4.877123e-06
000080 03 ba 91 36 c5 c4 9c 34 79 7c be 34 08 75 cd 33
       4.3429914e-06 2.9200433e-07 3.5480824e-07 9.567344e-08
000090 b7 f6 a4 36 23 9d bd 34 cf c0 89 35 c0 64 65 33
       4.9163023e-06 3.5318325e-07 1.026341e-06 5.340985e-08
0000a0 4e 60 43 34 00 67 04 36 de 39 09 36 08 73 c9 33
       1.8195826e-07 1.9729487e-06 2.0448274e-06 9.380716e-08
0000b0 55 71 ca 35 18 6c a0 36 95 90 03 33 29 75 ad 36
       1.5083157e-06 4.7809554e-06 3.063231e-08 5.169441e-06
0000c0 b5 11 92 35 0f b4 38 34 65 6b c5 35 e3 72 fb 35
       1.0883001e-06 1.720184e-07 1.47089e-06 1.8734394e-06
0000d0 1c d8 08 36 a8 fa 9e 33 68 4d 8d 36 08 0e 2c 37
       2.0391371e-06 7.4030424e-08 4.2111387e-06 1.0255266e-05
0000e0 2f 61 eb 34 a0 bc 01 34 fe 6f 26 35 71 53 db 34
       4.384287e-07 1.2082683e-07 6.200279e-07 4.085264e-07
0000f0 37 91 db 35 d2 a0 c4 35 f7 3d 4a 33 a9 0f 26 36
       1.6359035e-06 1.4649943e-06 4.7088147e-08 2.4745043e-06
000100 14 b3 f6 33 e1 6b 88 36 e8 4c ea 33 b3 49 23 34
       1.1487842e-07 4.0656746e-06 1.0910463e-07 1.520737e-07
000110 7f 80 d3 36 a4 22 37 35 dc 06 e9 34 51 84 40 34
       6.303249e-06 6.822322e-07 4.3404623e-07 1.792953e-07
000120 25 62 56 36 ca 7d 39 36 c6 89 96 36 51 3a 88 36
       3.1945613e-06 2.7640367e-06 4.4863873e-06 4.0599048e-06
000130 5d 12 a1 36 4b 1e cc 33 9b 81 96 35 3a d4 8d 35
       4.8003117e-06 9.5050005e-08 1.1213591e-06 1.0567085e-06
000140 0d 96 fd 35 7c 87 7e 35 6e 22 22 33 2f 3d da 36
       1.889364e-06 9.481953e-07 3.7749878e-08 6.504029e-06
000150 2f 57 b8 32 b4 dd aa 33 35 a2 18 35 f7 af a8 36
       2.1460066e-08 7.9565694e-08 5.6860455e-07 5.027275e-06
000160 70 79 c2 34 41 8f e2 36 e9 8e 49 36 09 04 e8 34
       3.6223673e-07 6.752002e-06 3.0034519e-06 4.3216303e-07
000170 5d 2b 2e 36 c2 57 49 34 45 ce 41 34 af 39 5a 34
       2.5953261e-06 1.875151e-07 1.8049566e-07 2.0323817e-07
000180 82 c4 77 34 67 1a c7 33 e6 da 4d 36 11 f1 87 35
       2.3075157e-07 9.271462e-08 3.0674796e-06 1.0128443e-06
000190 ec 80 f5 35 4e 53 88 35 f6 7f 3a 34 83 93 4e 35
       1.8291444e-06 1.0157034e-06 1.7369152e-07 7.695564e-07
0001a0 33 7c 81 34 0a b3 d8 36 00 d7 3b 36 89 0c 61 36
       2.411849e-07 6.4581445e-06 2.7990318e-06 3.353491e-06
0001b0 3b 46 08 36 8f f0 0f 36 e0 ec c5 34 4f 05 fd 36
       2.0306459e-06 2.1448684e-06 3.686646e-07 7.5406056e-06
0001c0 36 aa be 34 c3 24 de 35 d8 67 ac 34 67 81 54 34
       3.5514103e-07 1.6550988e-06 3.2113053e-07 1.9791115e-07
0001d0 64 f4 08 36 ae c8 12 34 b8 36 e1 35 65 d0 a4 33
       2.0407833e-06 1.3670316e-07 1.6779732e-06 7.674752e-08
0001e0 26 eb 15 34 c1 49 75 33 4f a2 59 34 c0 46 cf 36
       1.3962253e-07 5.7110586e-08 2.0268747e-07 6.177317e-06
0001f0 6b 26 66 36 e9 14 48 35 27 ed 26 35 32 26 8e 35
       3.4295033e-06 7.4536234e-07 6.218492e-07 1.0590941e-06
000200 17 7a 0b 33 c7 ed 01 35 6d c6 94 33 ab 5d e4 33
       3.24745e-08 4.8402256e-07 6.9278805e-08 1.06341155e-07
000210 22 05 9f 33 28 f2 a8 33 42 e6 a1 33 7f ff f3 34
       7.404948e-08 7.8671576e-08 7.5390304e-08 4.5448175e-07
000220 6f fb 52 34 8b 43 4e 34 4d 5c f3 35 17 d8 36 34
       1.9649245e-07 1.9209817e-07 1.8131774e-06 1.7028684e-07
000230 53 54 3e 35 92 56 56 35 15 35 8d 35 5e 96 71 33
       7.0903224e-07 7.984719e-07 1.0520768e-06 5.6248943e-08
000240 61 49 83 34 36 73 a6 33 c3 a8 f7 34 73 7b 6f 33
       2.4454042e-07 7.750934e-08 4.6130125e-07 5.57588e-08
000250 ee bf 7c 35 6b 0a 9e 34 af 21 04 35 5f 42 26 35
       9.415661e-07 2.9437373e-07 4.922285e-07 6.19364e-07
000260 02 96 18 36 1c 23 44 34 7d ed c2 35 69 ce 9f 35
       2.273708e-06 1.8266695e-07 1.4523245e-06 1.1906496e-06
000270 40 8d 18 35 2a 74 0f 34 f4 67 b9 33 0a 85 ad 35
       5.682996e-07 1.3360173e-07 8.633643e-08 1.2928224e-06
000280 7f 6d 87 35 af ce bd 33 9f 46 08 34 d3 b4 09 33
       1.0090151e-06 8.838594e-08 1.2691679e-07 3.2062257e-08
000290 eb be 86 35 da 2c 89 33 0d 37 fc 34 bf 0e e5 32
       1.0039342e-06 6.387718e-08 4.6978712e-07 2.6665814e-08
0002a0 4a fe 66 33 b8 55 2d 35 65 90 0d 35 51 56 91 32
       5.3782323e-08 6.457226e-07 5.2736715e-07 1.6919474e-08
0002b0 13 b1 d0 34 07 7b 81 35 3c 77 c5 32 b5 10 b1 35
       3.8871858e-07 9.647055e-07 2.298804e-08 1.319239e-06
0002c0 05 b9 96 34 64 a8 22 33 d5 25 0d 35 a5 49 eb 34
       2.8074297e-07 3.7871715e-08 5.2581646e-07 4.3825744e-07
0002d0 9d 5b 05 35 ed 9b ea 32 ca 3a 8a 35 98 87 3c 36
       4.9679676e-07 2.7312092e-08 1.0298911e-06 2.809311e-06
0002e0 d9 dc 9b 33 7b 95 66 32 c2 4f 33 34 c4 8f 28 34
       7.257922e-08 1.342175e-08 1.669969e-07 1.5698521e-07
0002f0 ae 58 ab 34 2a 37 f2 34 65 c6 b4 32 ab e0 3e 35
       3.1915755e-07 4.511615e-07 2.1044977e-08 7.110745e-07
000300 c9 71 07 33 f6 23 8c 35 db ca 81 32 a7 53 2a 33
       3.1535624e-08 1.0441279e-06 1.5109825e-08 3.965729e-08
000310 58 2d e2 35 5c d6 d6 33 31 f9 96 33 b2 3e 12 33
       1.6851509e-06 1.0004143e-07 7.030247e-08 3.4050295e-08
000320 d7 06 45 35 9b 83 52 35 54 d1 b1 35 1f 5d 83 35
       7.339817e-07 7.842261e-07 1.324845e-06 9.787362e-07
000330 3e f4 9f 35 02 45 39 33 2f 56 a0 34 98 b8 83 34
       1.1917507e-06 4.313643e-08 2.986503e-07 2.453496e-07
000340 1c 21 12 35 5b 63 7c 34 f3 de ac 31 cd f4 eb 35
       5.443742e-07 2.3505474e-07 5.0312052e-09 1.7580111e-06
000350 09 86 80 32 97 44 a7 32 28 9d 1c 34 6c f5 e6 35
       1.4962113e-08 1.947255e-08 1.4585805e-07 1.7207763e-06
000360 7d 51 a9 33 03 31 d9 35 77 db 50 35 a2 b2 08 34
       7.8844984e-08 1.6182024e-06 7.78054e-07 1.2730973e-07
000370 ca c9 15 35 aa b9 09 33 cf 93 2c 33 2a a9 68 33
       5.580047e-07 3.206666e-08 4.0181302e-08 5.4170563e-08
000380 39 dd 25 33 42 d5 4b 33 d0 2e 8a 35 37 3e 6c 34
       3.8618257e-08 4.7458578e-08 1.0295425e-06 2.2001846e-07
000390 2c 3a 2c 35 c6 47 e7 34 bd 48 94 33 0f 97 90 34
       6.4159644e-07 4.3079325e-07 6.905018e-08 2.6932e-07
0003a0 6a 96 22 34 ba ac 10 36 05 bf 25 35 11 b8 6c 35
       1.5142146e-07 2.1558212e-06 6.174526e-07 8.8184703e-07
0003b0 41 c2 01 35 d5 8f 26 35 cc d2 e2 33 74 39 1f 36
       4.833892e-07 6.204912e-07 1.0562289e-07 2.3726288e-06
0003c0 48 b1 7f 33 8d a1 0b 35 5a 9b b9 33 47 2d 61 33
       5.953305e-08 5.201662e-07 8.642992e-08 5.2428074e-08
0003d0 de 50 fa 34 15 b0 80 33 8d 42 32 35 40 da 9b 32
       4.6624967e-07 5.9924936e-08 6.640701e-07 1.8143623e-08
0003e0 fa 48 35 33 41 74 82 32 de 9e 64 32 51 40 db 35
       4.220872e-08 1.5186858e-08 1.3307469e-08 1.633549e-06
0003f0 23 40 7e 35 47 ba 4e 34 1f a4 5a 34 81 8f a0 34
       9.4715705e-07 1.9253012e-07 2.0362539e-07 2.9906735e-07

exp_avg f4 [64]
000000 55 04 5c 39 f1 0d e5 38 c7 70 dc 39 d4 7f 4f 39
       0.00020982449 0.00010922168 0.00042045696 0.00019788678
000010 80 f9 38 39 ec c0 3b 39 3a 20 82 b8 37 53 e6 37
       0.00017640553 0.00017905579 -6.204886e-05 2.7456887e-05
000020 98 8d 43 b9 0f 86 04 b9 75 13 7f 38 63 46 24 b9
       -0.00018649397 -0.00012638442 6.081486e-05 -0.0001566648
000030 b8 ff c6 b9 eb 54 37 39 e5 ea bb 37 bd 89 f4 ba
       -0.00037956028 0.00017483874 2.2401518e-05 -0.0018656772
000040 bb 73 49 b8 44 27 50 ba 26 75 88 3a 5e f8 24 39
       -4.8029917e-05 -0.00079404213 0.001041089 0.00015732783
000050 cf cd 35 b8 43 a3 96 39 1c 93 83 ba de 0e 34 39
       -4.3345437e-05 0.0002873187 -0.0010038349 0.00017171676
000060 ea 32 c6 b9 2c 88 52 39 4e 38 15 38 f3 c5 04 b9
       -0.00037803437 0.00020077889 3.5576806e-05 -0.00012662243
000070 2d a5 d5 38 b2 8f bf b8 76 f7 82 37 0c 10 aa 36
       0.00010187398 -9.134355e-05 1.561244e-05 5.068263e-06
000080 55 c8 b1 3b 1a 9d d9 39 ff fa 91 39 2c f9 ea b8
       0.005425493 0.00041506515 0.00027843562 -0.000112044014
000090 37 22 ca b8 cd ae 81 39 f5 76 2b ba 4e 79 75 39
       -9.6384836e-05 0.00024735034 -0.00065408583 0.0002341021
0000a0 6a 5d 9f ba 03 90 3d 39 c6 36 da 38 da b4 51 b8
       -0.0012158577 0.00018078093 0.000104052524 -4.9997914e-05
0000b0 7b 19 3d b9 41 7f 2d b8 a4 66 f7 b9 c0 d2 18 b9
       -0.00018033937 -4.136493e-05 -0.00047187984 -0.0001457436
0000c0 5f a9 9a b9 ef 1c 3d b9 e5 10 45 b9 e7 9f d6 38
       -0.0002949936 -0.00018035223 -0.00018793678 0.00010234099
0000d0 d6 13 0f ba 47 22 29 b9 a5 b0 7b 39 00 f7 0e 3a
       -0.0005457973 -0.00016129865 0.0002400303 0.0005453676
0000e0 0a 18 9c b8 c0 b2 bb b9 20 f7 bc 39 32 8c 1a ba
       -7.443137e-05 -0.000358006 0.00036042277 -0.00058955245
0000f0 83 01 e7 b9 72 eb fe 38 cc a1 ad b9 0a 33 64 39
       -0.0004406088 0.00012155519 -0.0003311768 0.00021762788
